model (2).pth (torch_old, 539160 bytes, 17 tensors)

gru.weight_ih_l0 f4 [225, 50]
0.12967762 0.05729338 0.12923364 -0.00066656433 0.08487747 -0.06250433 -0.13122322 -0.03959257
-0.1296375 0.013412478 -0.03146615 0.035991658 -0.01572605 0.09802571 0.0011422315 -0.111590154
0.20941983 0.19235867 -0.07174784 -0.09598329 0.041079212 -0.07966991 0.06662264 0.02420499
-0.0336135 -0.0019726462 0.04866748 0.05078479 0.051691134 -0.01362503 0.01600786 0.046679202
-0.15752804 -0.10187646 -0.0925343 0.1745555 -0.07185155 -0.020586785 -0.09491486 -0.05515269
0.10861473 0.17245153 -0.09291022 -0.10935774 0.022108192 -0.05587415 -0.11272368 -0.022152392
-0.3566532 0.03457884 -0.14703022 -0.032835267 -0.116851054 -0.2049533 -0.03980569 -0.042282544
-0.4391461 0.38695514 -0.06039306 0.042893246 0.09858908 -0.022160612 -0.13542992 -0.12377299
-0.00834283 -0.14171265 0.23868635 0.05773587 -0.14239699 0.09244987 0.14906499 -0.16967647
-0.10226931 0.005515761 -0.051996876 -0.1440762 0.029409034 0.030078663 -0.061404135 0.2033522
0.10454857 -0.13212036 0.2615124 -0.25761667 0.22217183 0.3174649 -0.024434699 0.4149924
-0.0886814 -0.10907044 -0.15386324 -0.08721171 -0.18794742 -0.117436565 -0.35139146 -0.05726018
-0.40304163 -0.016995978 0.02622085 0.049589105 -0.2979407 0.033159945 0.27307573 -0.049761508
-0.11958316 0.032014824 0.042523526 0.107030384 0.30952394 -0.31487203 0.049660318 0.05639137
0.044468373 -0.06935495 -0.12548916 0.085354865 -0.08909317 0.23394498 0.033496395 0.15525894
-0.023335464 0.0069337497 -0.099651396 0.17249538 -0.20122524 0.024971848 0.15202495 -0.14748733
-0.11632545 0.07758292 -0.103689134 0.2153511 -0.18931241 0.34715202 0.11981511 -0.03482766
-0.032172117 -0.25173706 0.16333626 0.18950611 0.016002184 -0.21385166 -0.04372361 0.13549776
-0.10271523 -0.3167358 -0.110235035 -0.117874436 -0.051038656 -0.26978546 -0.025125064 -0.0239776
0.035920955 0.11370961 0.017515715 0.10433584 0.026496748 -0.2809046 0.038403373 0.10649409
0.013466143 0.035133377 0.13276647 -0.15009786 0.04063378 0.19097245 -0.13285895 -0.041460007
0.15377602 0.14763743 0.11711964 -0.02883851 0.11855498 0.16511546 -0.098303445 -0.02408499
0.009740546 -0.3109597 0.070242316 -0.050811857 0.040188547 0.1488106 -0.30076763 -0.06614296
0.15919858 0.087202504 -0.02265846 -0.2650865 0.016279776 -0.01979175 0.021148259 0.21103211
-0.043093614 -0.024515083 0.0035756964 -0.10555044 0.047635064 -0.09125246 -0.17924652 0.08306532
-0.009707435 -0.018267183 -0.22220005 0.0029276286 -0.053464517 0.013828466 -0.34361616 -0.22375017
-0.26819164 0.11994592 -0.10254257 0.13003595 0.14150167 0.07690986 -0.046293635 -0.040688317
0.14641562 0.26566803 -0.06271669 -0.10564323 0.12757283 0.12232704 -0.21217822 -0.041104104
-0.15811865 0.063482955 0.036816444 -0.105346665 0.16797389 0.05344903 -0.01880747 0.18719599
0.15730512 -0.25529584 0.17442618 0.3952835 -0.37163004 -0.053654343 -0.09138491 0.05188554
-0.054127578 0.40888125 -0.19949654 0.23168083 0.35593513 -0.13146967 -0.18886754 0.054135785
-0.21176131 -0.033544697 0.06751541 0.06687035 0.15651146 0.13586083 -0.11551312 0.08537909
00000000: 36ca 043e 77ac 6a3d d355 043e 60bc 2eba
00000010: 3dd4 ad3d 4502 80bd 615f 06be d22b 22bd
00000020: b1bf 04be 03c0 5b3c a6e2 00bd fd6b 133d
00000030: ebd3 80bc b4c1 c83d eeb6 953a 6189 e4bd
00000040: 2772 563e acf9 443e 88f0 92bd e392 c4bd
00000050: ad42 283d fa29 a3bd 7371 883d 8b49 c63c
00000060: 4fae 09bd 8347 01bb 8d57 473d b603 503d
00000070: 15ba 533d 853b 5fbc ea22 833c b132 3f3d
00000080: 084f 21be 9ba4 d0bd a082 bdbd adbe 323e
00000090: e826 93bd 9ea5 a8bc b962 c2bd c9e7 61bd
000000a0: 6671 de3d 2297 303e b747 bebd f3f6 dfbd
000000b0: 3d1c b53c 4bdc 64bd acdb e6bd ef78 b5bc
000000c0: 409b b6be 8ba2 0d3d 178f 16be 467e 06bd
000000d0: 9b4f efbd 47df 51be 4b0b 23bd 7630 2dbd
000000e0: c2d7 e0be fc1e c63e b75e 77bd d4b0 2f3d
000000f0: 12e9 c93d 2c8a b5bc 24ae 0abe b27c fdbd
00000100: 5eb0 08bc 1f1d 11be 326a 743e 737c 6c3d
00000110: 84d0 11be 5c56 bd3d 7ea4 183e abbf 2dbe
00000120: 9272 d1bd 8fbd b43b adfa 54bd b688 13be
00000130: 37eb f03c 8767 f63c e782 7bbd 8f3b 503e
00000140: 901d d63d 8f4a 07be f4e4 853e 55e6 83be
00000150: 0381 633e c28a a23e 472b c8bc e279 d43e
00000160: 989e b5bd 5360 dfbd 538e 1dbe 0e9c b2bd
00000170: 4a75 40be 9582 f0bd 95e9 b3be a789 6abd
00000180: 795b cebe 263b 8bbc 1ccd d63c f21d 4b3d
00000190: af8b 98be b9d2 073d 95d0 8b3e b9d2 4bbd
000001a0: 04e8 f4bd fa21 033d 262d 2e3d bf32 db3d
000001b0: ec79 9e3e e836 a1be 9e68 4b3d a3fa 663d
000001c0: 7824 363d f809 8ebd 3b80 00be 88ce ae3d
000001d0: 7b76 b6bd 468f 6f3e 8433 093d 33fc 1e3e
000001e0: 042a bfbc 8234 e33b 0816 ccbd a1a2 303e
000001f0: fd0d 4ebe c391 cc3c 6eac 1b3e eb06 17be
00000200: 0a3c eebd cbe3 9e3d f85a d4bd 0085 5c3e
00000210: 1ddb 41be e9bd b13e a061 f53d 73a7 0ebd
00000220: e9c6 03bd aee3 80be 9f41 273e e40d 423e
00000230: 0317 833c eefb 5abe 8717 33bd edbf 0a3e
00000240: 5d5c d2bd 322b a2be e8c2 e1bd 2768 f1bd
00000250: e90d 51bd 5221 8abe 14d3 cdbc ac6c c4bc
00000260: da21 133d 96e0 e83d 1e7d 8f3c 07ae d53d
00000270: b50f d93c bad2 8fbe db4c 1d3d 9319 da3d
00000280: 19a1 5c3c 04e8 0f3d eff3 073e 41b3 19be
00000290: 9b6f 263d 488e 433e 2d0c 08be f8d1 29bd
000002a0: 7677 1d3e 442e 173e 6cdc ef3d bd3e ecbc
000002b0: f4cc f23d 0714 293e 5153 c9bd e34d c5bc
000002c0: d096 1f3c 1c36 9fbe 34db 8f3d 1820 50bd
000002d0: bf9c 243d ce61 183e 37fe 99be f675 87bd
000002e0: f404 233e 3a97 b23d 3c9e b9bc 6bb9 87be
000002f0: 2a5d 853c 4f22 a2bc 1d3f ad3c cd18 583e
00000300: ee82 30bd dbd3 c8bc 3b56 6a3b d42a d8bd
00000310: fc1c 433d 92e2 babd 668c 37be 271e aa3d
00000320: ef0b 1fbc 0fa5 95bc 6988 63be 75dd 3f3b
00000330: 9cfd 5abd ca90 623c 75ee afbe c41e 65be
00000340: 6a50 89be 35a6 f53d d701 d2bd 2528 053e
00000350: d0e5 103e eb82 9d3d 659e 3dbd cba8 26bd
00000360: faed 153e a405 883e 9c71 80bd 7a5b d8bd
00000370: 74a2 023e 9986 fa3d 3f45 59be c75c 28bd
00000380: dbe9 21be 5a03 823d d7cc 163d febf d7bd
00000390: 5901 2c3e 5fed 5a3d 2012 9abc 4eb0 3f3e
000003a0: 9814 213e 23b6 82be c79c 323e 9962 ca3e
000003b0: 4b46 bebe a8c4 5bbd 0328 bbbd ef85 543d
000003c0: e1b4 5dbd e258 d13e d248 4cbe bd3d 6d3e
000003d0: 213d b63e fc9f 06be 7e66 41be 7cbd 5d3d
000003e0: f5d7 58be 2a66 09bd 8545 8a3d 52f3 883d
000003f0: 8a44 203e 1a1f 0b3e 2592 ecbd 3bdb ae3d

gru.weight_hh_l0 f4 [225, 75]
-0.0699304 -0.41766277 0.14019269 -0.056745347 -0.06522086 0.07085434 0.03943916 0.12308664
0.08673689 0.06522616 -0.14901116 -0.020117775 0.025285747 0.09478021 -0.01786643 0.06900168
-0.10185085 -0.0379108 -0.08014102 -0.25924972 0.14506508 0.107245006 0.031873964 0.1085853
-0.09133292 -0.0788599 -0.02730969 -0.09932457 0.058707688 0.099687204 -0.119875155 -0.099953555
0.03330767 0.028372535 -0.11444611 -0.017018514 -0.1306316 0.0464668 0.0014390572 -0.14342622
-0.1685571 0.080526784 -0.1894146 -0.05252676 -0.017908912 0.0079486435 0.04426647 0.096953094
-0.018709587 -0.0016489362 0.0788495 -0.0030274673 -0.003865921 0.0171638 -0.12319907 0.07130991
0.03239454 0.06903509 0.03619068 0.055653673 -0.12434995 0.066457406 0.10144492 -0.055853244
0.033980086 0.057123527 0.04252997 -0.04976112 -0.07288371 0.041117027 -0.072734505 -0.055939496
-0.10002469 -0.11190323 -0.20185407 -0.10520806 0.010334107 0.0697514 -0.08565184 -0.08967954
0.097808875 -0.22213641 0.18007085 0.08665277 0.033904668 -0.3772074 -0.12712155 0.073421456
0.07161316 -0.0073592784 0.016061984 -0.041796565 0.11685646 -0.06356471 -0.21441762 -0.09511987
-0.28656155 -0.0662094 -0.0013602384 0.0909204 0.102993384 0.02173777 0.06383952 0.1353218
0.029614588 -0.11809698 0.07148171 -0.14037824 -0.32230127 0.0974931 -0.017557042 0.0717976
-0.18441916 0.08166386 -0.1222288 0.018994793 -0.1408354 0.064126275 0.057845153 0.28520107
-0.2140965 0.114485204 0.11781903 0.29607385 -0.028916024 -0.035571586 0.049053542 0.077835724
0.06358419 0.034197774 0.026939675 0.022629803 0.11116264 -0.05502501 0.18837954 0.19469722
-0.07938085 0.080218725 0.23202598 -0.15094118 0.2955465 0.18359262 -0.022662194 0.19132179
1.6335747e-05 0.069887534 -0.21872732 0.09112641 0.059960958 0.072540104 0.03688619 0.05103096
-0.04630519 -0.08223193 -0.11727835 0.006783813 0.07729601 -0.05525381 -0.081510924 -0.26742247
0.041592102 0.08307644 -0.0894493 -0.14658293 0.051581793 0.24174766 -0.008504738 0.03388444
-0.08790249 0.2784781 -0.04082808 -0.0077268295 -0.014235352 -0.09324421 0.066025965 -0.18759789
0.16099901 0.08916218 -0.058332767 0.024044227 0.032703273 -0.01586885 -0.107937105 -0.023400685
0.14627554 -0.04221726 -0.06465612 0.23319541 -0.16424987 0.049670767 0.1478043 0.008299165
-0.16356844 0.18799688 -0.26159638 -0.19509616 -0.13574375 0.030246824 0.15295058 0.038023766
-0.08217978 0.10148744 -0.040513534 0.07443322 0.042313438 0.05297599 -0.0057704193 0.09036142
0.06764826 -0.042548288 0.13118884 -0.040023703 0.030674813 0.13861741 -0.021061258 0.13007632
-0.020655615 0.033040248 -0.15274067 -0.024304919 0.051191386 -0.08108102 0.10383106 0.13810442
-0.066043995 -0.027568048 0.11758964 0.046563648 0.07870792 0.04899462 -0.09446258 -0.030340204
0.078044966 0.09929056 -0.09505321 0.07109872 0.12412455 0.14025688 -0.01570667 -0.06905862
0.11228595 0.0963598 0.11938529 -0.1458704 0.17674512 0.059041806 0.18989164 0.113661595
0.049213707 0.16263565 -0.099070214 0.010656714 -0.058042757 0.04843679 -0.053678975 -0.14085953
00000000: ab37 8fbd e5d7 d5be ac8e 0f3e cf6d 68bd
00000010: 8492 85bd 151c 913d f58a 213d d914 fc3d
00000020: 1ca3 b13d 4b95 853d 6296 18be 08ce a4bc
00000030: 0e24 cf3c 201c c23d 9f5c 92bc c150 8d3d
00000040: 2e97 d0bd 5b48 1bbd fa20 a4bd 61bc 84be
00000050: f18b 143e 45a3 db3d 468e 023d f861 de3d
00000060: c10c bbbd 4d81 a1bd 92b8 dfbc ae6a cbbd
00000070: 7977 703d ce28 cc3d 1b81 f5bd 73b4 ccbd
00000080: a06d 083d 856d e83c b962 eabd 696a 8bbc
00000090: 4ac4 05be f953 3e3d bf9e bc3a 53de 12be
000000a0: 3c9a 2cbe 3aeb a43d e7f5 41be 4d26 57bd
000000b0: b6b5 92bc 073b 023c c250 353d 588f c63d
000000c0: d944 99bc 1e21 d8ba d97b a13d 7968 46bb
000000d0: 645b 7dbb 199b 8c3c cb4f fcbd ee0a 923d
000000e0: 23b0 043d 4562 8d3d ae3c 143d 1bf5 633d
000000f0: 30ab febd d21a 883d 5bc2 cf3d 5fc6 64bd
00000100: b42e 0b3d 5cfa 693d e833 2e3d 51d2 4bbd
00000110: 0e44 95bd 546a 283d d4f5 94bd d020 65bd
00000120: bfd9 ccbd 852d e5bd d5b2 4ebe 5377 d7bd
00000130: 6350 293c d2d9 8e3d 3b6a afbd e8a9 b7bd
00000140: 0550 c83d ba77 63be 7e64 383e 0277 b13d
00000150: 9fdf 0a3d 5421 c1be 272c 02be fd5d 963d
00000160: eca9 923d 1a26 f1bb 6c94 833c e032 2bbd
00000170: 7152 ef3d 372e 82bd 4b90 5bbe 35ce c2bd
00000180: 32b8 92be cb98 87bd 074a b2ba 7a34 ba3d
00000190: 32ee d23d 6813 b23c 4bbe 823d cc91 0a3e
000001a0: 4b9a f23c d4dc f1bd 0165 923d 50bf 0fbe
000001b0: ac04 a5be 76aa c73d c9d3 8fbc 9f0a 933d
000001c0: 60d8 3cbe 623f a73d 1853 fabd f89a 9b3c
000001d0: 2837 10be a354 833d 0aef 6c3d e005 923e
000001e0: 1d3c 5bbe 3877 ea3d 1b4b f13d fe96 973e
000001f0: 4ce1 ecbc 83b3 11bd 5eec 483d 5668 9f3d
00000200: 6e38 823d f712 0c3d 98b0 dc3c 2362 b93c
00000210: 3da9 e33d e861 61bd 91e6 403e b55e 473e
00000220: 6d92 a2bd b749 a43d 3898 6d3e 5390 1abe
00000230: df51 973e b4ff 3b3e 11a6 b9bc dce9 433e
00000240: c008 8937 3221 8f3d 0efa 5fbe 7ca0 ba3d
00000250: 9f99 753d e88f 943d f915 173d d705 513d
00000260: 83aa 3dbd 3769 a8bd a22f f0bd bf4a de3b
00000270: 5f4d 9e3d d251 62bd 33ef a6bd 99eb 88be
00000280: 7b5c 2a3d fb23 aa3d 3231 b7bd d619 16be
00000290: 6e47 533d b38c 773e 7557 0bbc 69ca 0a3d
000002a0: 3806 b4bd ae94 8e3e 583b 27bd 5831 fdbb
000002b0: 653b 69bc d2f6 bebd 9f38 873d a919 40be
000002c0: eddc 243e a99a b63d 57ee 6ebd 66f8 c43c
000002d0: def3 053d 64ff 81bc 210e ddbd cbb2 bfbc
000002e0: 41c9 153e 01ec 2cbd 6e6a 84bd c7ca 6e3e
000002f0: 1e31 28be 9373 4b3d 035a 173e 39f9 073c
00000300: 7c7e 27be 4182 403e f6ef 85be 4ac7 47be
00000310: 6900 0bbe 30c8 f73c 149f 1c3e cfbe 1b3d
00000320: df4d a8bd a6d8 cf3d 85f1 25bd 7270 983d
00000330: db50 2d3d 5afd 583d c915 bdbb 680f b93d
00000340: 2c8b 8a3d 1d47 2ebd 5e56 063e e5ef 23bd
00000350: bf49 fb3c b9f1 0d3e a988 acbc ba32 053e
00000360: f735 a9bc 3655 073d 0d68 1cbe 1c1b c7bc
00000370: 0fae 513d ce0d a6bd 61a5 d43d 3f6b 0d3e
00000380: 1342 87bd 63d6 e1bc d6d2 f03d 86b9 3e3d
00000390: 9e31 a13d 95ae 483d 9975 c1bd 058c f8bc
000003a0: 0ad6 9f3d d958 cb3d 42ab c2bd 359c 913d
000003b0: 0335 fe3d 809f 0f3e 46ab 80bc 9b6e 8dbd
000003c0: 2df6 e53d 4958 c53d 4680 f43d 0d5f 15be
000003d0: acfc 343e d2d5 713d f472 423e 69c7 e83d
000003e0: 5094 493d f689 263e 53e5 cabd 8099 2e3c
000003f0: 3ebe 6dbd a865 463d 7cde 5bbd 7b3d 10be

gru.bias_ih_l0 f4 [225]
0.042448442 -0.078473635 0.022317234 -0.051368136 0.0028294448 -0.08755917 -0.07024914 -0.039749093
-0.029304976 0.036128517 0.050137516 0.062445216 -0.072121955 -0.048698317 -0.0012566398 -0.04392064
0.113891676 -0.09638577 -0.07055153 0.029255359 -0.05237914 0.14009555 -0.054726828 0.10446153
-0.019056275 0.056197062 -0.11955275 -0.15625285 0.013766087 0.06510414 -0.014446878 0.032689817
-0.025050946 0.0039530694 0.07726437 -0.107690774 0.04897372 0.14890155 -0.035727207 0.10730221
-0.040586986 -0.054005124 0.09002941 -0.06216889 0.027517973 -0.07865014 0.0036044077 -0.031602006
-0.15068254 -0.12846708 0.0011950128 -0.041139044 -0.036961265 0.09083483 -0.025634928 0.21803811
-0.080723554 0.16058594 -0.06345399 -0.045038927 0.08049548 0.07638243 0.15260373 0.0014512716
0.049676448 0.14012754 -0.08615669 0.069428205 0.06656845 -0.03598397 -0.023209091 -0.038785033
-0.14909692 -0.042302847 0.027459063 0.471631 -0.017713351 -0.066634834 0.17044684 0.14250131
0.31245324 0.04764002 0.15879455 -0.14722024 0.21149871 0.21238613 0.21327882 0.07960565
0.21707621 -0.093716465 -0.044163723 0.2500468 0.30611315 0.2275871 0.36984 0.05211504
-0.11469923 0.3581705 -0.2075361 0.30752262 0.03241679 -0.15485926 0.15746453 0.23656937
-0.040069792 0.18807854 0.04461558 0.49682832 0.11872142 0.28121236 0.1591339 0.13299459
-0.12767093 -0.0043012644 0.42121434 0.431199 0.12952644 -0.0020286576 -0.010738765 0.022313554
0.04998774 0.43853277 0.09284701 -0.09106121 0.18979876 0.12170175 0.11251245 0.3941317
0.23147197 0.1874091 0.22847837 0.010901088 -0.17363425 0.4169276 0.012452158 0.51683784
0.4228766 0.51086193 -0.019996164 0.26463872 0.6487237 0.23803727 0.5563247 -0.053044993
-0.0041216426 0.3897775 0.33738703 0.3041433 0.10313896 0.12151995 0.0659459 -0.07136093
-0.23379686 0.024167825 0.097365886 0.064553574 0.07080613 0.012738774 -0.035398133 -0.033016086
0.045109358 -0.04241728 -0.09617394 0.008448865 0.13703911 0.11226966 0.05813303 -0.041646358
0.004498291 0.06952087 0.04211211 0.1404211 0.019428128 0.10871849 0.03885499 -0.07452944
-0.080273055 -0.030148398 -0.00071165396 0.053585917 -0.0990808 0.006050578 0.039678942 -0.0180689
0.06704378 -0.025129326 0.09687543 0.115919836 0.061811905 0.06566964 0.028850261 -0.09303536
-0.072926916 0.026730381 -0.12903677 -0.080747716 0.10177209 0.018244417 0.04024332 0.095649764
-0.07998965 -0.031154646 -0.016803676 0.05240572 0.088223815 0.13818388 0.0066948594 -0.08204128
-0.020126661 0.039466064 -0.008839903 0.03789058 0.02488885 -0.08479874 0.13010827 0.07105453
0.10081624 0.029589422 -0.17982246 -0.052510418 0.10897607 -0.0009039646 -0.02268049 0.1232268
0.0032638845
00000000: 6bde 2d3d c9b6 a0bd a2d2 b63c 6567 52bd
00000010: 356e 393b 3952 b3bd c8de 8fbd f2cf 22bd
00000020: fd10 f0bc 7ffb 133d ff5c 4d3d 8ec6 7f3d
00000030: adb4 93bd e377 47bd d6b5 a4ba 21e6 33bd
00000040: 0a40 e93d e765 c5bd 527d 90bd efa8 ef3c
00000050: 828b 56bd 3575 0f3e 3d29 60bd edef d53d
00000060: e81b 9cbc e42e 663d 12d8 f4bd bf00 20be
00000070: 278b 613c 5255 853d 99b2 6cbc c2e5 053d
00000080: a437 cdbc c088 813b c83c 9e3d fb8c dcbd
00000090: ab98 483d a679 183e b156 12bd 43c1 db3d
000000a0: 8a3e 26bd 7a34 5dbd 5761 b83d cea4 7ebd
000000b0: 5f6d e13c 5313 a1bd ed37 6c3b 1b71 01bd
000000c0: 864c 1abe e08c 03be faa1 9c3a 6a81 28bd
000000d0: b264 17bd 9d07 ba3d 5700 d2bc 6245 5f3e
000000e0: 6452 a5bd a470 243e 2af4 81bd bd7a 38bd
000000f0: d0da a43d 646e 9c3d 2744 1c3e 9838 be3a
00000100: 8879 4b3d 987d 0f3e eb72 b0bd 6030 8e3d
00000110: 0a55 883d ed63 13bd fe20 bebc 0edd 1ebd
00000120: ddac 18be c045 2dbd d4f1 e03c 9e79 f13e
00000130: 971b 91bc d877 88bd 9e89 2e3e ddeb 113e
00000140: dff9 9f3e 2e22 433d 0a9b 223e e7c0 16be
00000150: 1e93 583e c07b 593e c365 5a3e 4908 a33d
00000160: 3a49 5e3e 6bee bfbd 05e5 34bd 2206 803e
00000170: ddba 9c3e 980c 693e ab5b bd3e 9576 553d
00000180: 6ee7 eabd 2062 b73e 5884 54be 9b73 9d3e
00000190: 78c7 043d 6d93 1ebe 623e 213e 3e3f 723e
000001a0: 3920 24bd a997 403e d4be 363d 4860 fe3e
000001b0: 3724 f33d 11fb 8f3e fff3 223e bc2f 083e
000001c0: 2bbc 02be 9ff1 8cbb 68a9 d73e 1ec6 dc3e
000001d0: 94a2 043e 3af3 04bb a5f1 2fbc eaca b63c
000001e0: f2bf 4c3d 5e87 e03e 9326 be3d 4d7e babd
000001f0: 9b5a 423e c43e f93d ed6c e63d a1cb c93e
00000200: fd06 6d3e 2ce8 3f3e 3cf6 693e 7a9a 323c
00000210: 2dcd 31be 8977 d53e 2304 4c3c 7c4f 043f
00000220: 4883 d83e d9c7 023f ffce a3bc ba7e 873e
00000230: c212 263f 0bc0 733e 4c6b 0e3f b545 59bd
00000240: d80e 87bb eb90 c73e febd ac3e acb8 9b3e
00000250: 853a d33d 74df f83d a50e 873d ae25 92bd
00000260: 7268 6fbe 9afb c53c c467 c73d aa34 843d
00000270: ce02 913d 4ab6 503c a2fd 10bd e03b 07bd
00000280: 97c4 383d bebd 2dbd d8f6 c4bd 1c6d 0a3c
00000290: fb53 0c3e a3ed e53d e61c 6e3d 5f95 2abd
000002a0: 6666 933b f560 8e3d bf7d 2c3d 8dca 0f3e
000002b0: bd27 9f3c cda7 de3d 6926 1f3d e4a2 98bd
000002c0: 3366 a4bd c6f9 f6bc 4a8e 3aba e87c 5b3d
000002d0: e0ea cabd ed43 c63b 6386 223d 3b05 94bc
000002e0: 404e 893d 04dc cdbc a066 c63d 6167 ed3d
000002f0: 7b2e 7d3d ce7d 863d 6257 ec3c 5389 bebd
00000300: b55a 95bd acf9 da3c 3722 04be 0f5f a5bd
00000310: e36d d03d 5175 953c 2ed6 243d 06e4 c33d
00000320: 9dd1 a3bd 0738 ffbc dda7 89bc 61a7 563d
00000330: b0ae b43d 1380 0d3e 8d60 db3b 4205 a8bd
00000340: abe0 a4bc 2ba7 213d 3ed5 10bc 2733 1b3d
00000350: b4e3 cb3c f6aa adbd 1a3b 053e 0a85 913d
00000360: bf78 ce3d 8465 f23c 6123 38be 2a15 57bd
00000370: d92e df3d 0af8 6cba 6fcc b9bc 555e fc3d
00000380: e5e6 553b

gru.bias_hh_l0 f4 [225]
0.0323387 0.07623369 0.10202342 -0.030643301 0.20652102 -0.08369223 0.12190676 -0.09344673
-0.060203806 0.05813798 0.026768427 0.025117 -0.13047594 0.09872699 0.10363743 0.024315652
-0.07407709 -0.03458739 -0.1285172 -0.09912491 -0.14944007 0.0011783422 -0.03668096 0.11049397
-0.076531045 -0.010942084 -0.09588039 0.0068643484 -0.03497663 0.088073954 -0.11844598 -0.03839224
-0.107922226 -0.036556024 -0.0893832 -0.026215076 -0.052902404 0.16319771 -0.0015077282 -0.015235559
-0.036206014 0.0054800995 0.0121770175 -0.120561145 -0.056460317 -0.09473149 0.015599705 0.03877299
-0.08783739 -0.03164902 -0.024318967 0.11078238 -0.08310506 0.03699247 -0.040329035 0.029919641
-0.003908755 0.10814393 -0.043509673 0.062077437 -0.027630266 0.007616244 0.10275389 -0.009779605
-0.014802622 0.0165155 0.0049834945 -0.029905418 0.17174052 0.06963098 0.049173925 -0.07423969
-0.14875326 -0.053353667 0.07605634 0.38273826 -0.09060129 0.0959215 0.19882636 0.063262746
0.15041445 0.20552745 0.00975638 -0.09028976 0.38695553 0.22463998 0.11158858 0.10436342
0.17803518 -0.07278631 0.035412442 0.16768825 0.19817609 0.09447939 0.29912794 0.16738689
-0.23133503 0.44912088 -0.0716918 0.24003856 0.033246037 -0.04343858 0.14015168 0.34373933
0.14469436 0.23815845 0.18376413 0.5900792 -0.010557552 0.2191153 0.22531086 0.10129259
-0.005502388 0.00057530514 0.30547175 0.49060318 0.2754417 -0.08777129 0.022548882 -0.012834553
-0.082451954 0.48996854 0.057063133 -0.11592235 0.16832677 0.096512616 0.17985398 0.30116615
0.18293801 0.121755935 0.27884254 -0.18876773 -0.17747925 0.3484781 0.030649364 0.58844525
0.47024727 0.51465744 -0.016904684 0.34704536 0.64985716 0.28878033 0.558352 -0.13421722
0.08949843 0.42757106 0.18084799 0.11338307 0.16109279 0.21538429 -0.101603165 0.035955902
-0.28380477 0.11125462 0.0532462 -0.11543051 0.13202085 -0.05360268 -0.11839325 -0.017571105
-0.067946255 0.088063 0.011895196 0.07540032 1.7471448e-05 0.078465395 -0.054330356 0.01239186
-0.020143595 0.14949195 -0.08613869 0.18370813 0.07319679 0.08289759 -0.010797983 -0.045426402
0.07418788 0.093556955 0.06934729 0.07744112 -0.06557961 -0.12572585 -0.09558352 -0.0566411
-0.012133024 0.058993038 0.01784718 0.070311606 -0.016813116 -0.022734363 -0.087425016 0.03756751
0.012798742 -0.062808335 0.031938314 -0.04036273 -0.0060782726 -0.14592017 0.011532959 0.055489797
0.023265485 -0.03472572 0.10697115 -0.035814464 -0.0072413245 0.12726867 0.12839137 -0.1645304
0.050501682 -0.0140531 0.09972905 -0.0015532573 0.08738946 0.03913181 -0.08410612 -0.016948203
-0.031456087 -0.08051199 -0.24214466 -0.15443735 -0.022378713 -0.12200582 -0.105581775 -0.054926217
-0.07455958
00000000: 9675 043d 6920 9c3d a8f1 d03d a907 fbbc
00000010: 3f7a 533e d566 abbd 40aa f93d 0061 bfbd
00000020: 4498 76bd 1722 6e3d 7649 db3c 2bc2 cd3c
00000030: 7c9b 05be 6031 ca3d dc3f d43d 9e31 c73c
00000040: bbb5 97bd 82ab 0dbd 039a 03be 0002 cbbd
00000050: d106 19be 9a72 9a3a c63e 16bd aa4a e23d
00000060: 4fbc 9cbd 6d46 33bc f05c c4bd 54ee e03b
00000070: a843 0fbd 1e60 b43d ce93 f2bd 2e41 1dbd
00000080: 5406 ddbd c5bb 15bd 8a0e b7bd 00c1 d6bc
00000090: 31b0 58bd 4d1d 273e f79e c5ba 919e 79bc
000000a0: c24c 14bd 6892 b33b 1d82 473c c3e8 f6bd
000000b0: ef42 67bd 9502 c2bd e895 7f3c 6dd0 1e3d
000000c0: 17e4 b3bd 67a2 01bd 9238 c7bc dfe1 e23d
000000d0: fc32 aabd 6b85 173d 0f30 25bd 091a f53c
000000e0: 0315 80bb 917a dd3d 3337 32bd e944 7e3d
000000f0: de58 e2bc af91 f93b a270 d23d a33a 20bc
00000100: b286 72bc 844b 873c 954c a33b 35fc f4bc
00000110: bfdc 2f3e b09a 8e3d 996a 493d fb0a 98bd
00000120: c652 18be 6089 5abd 6dc3 9b3d 45f6 c33e
00000130: 2b8d b9bd 7e72 c43d 2399 4b3e e68f 813d
00000140: 3f06 1a3e ca75 523e 39d9 1f3c d6e9 b8bd
00000150: 091f c63e 0608 663e 8e88 e43d 7dbc d53d
00000160: db4e 363e fd10 95bd a30c 113d 78b6 2b3e
00000170: acee 4a3e 697e c13d 4c27 993e 7867 2b3e
00000180: 17e3 6cbe 2cf3 e53e 27d3 92bd abcc 753e
00000190: ff2c 083d a7ec 31bd ec83 0f3e 9afe af3e
000001a0: c22a 143e cfdf 733e aa2c 3c3e 6e0f 173f
000001b0: 95f9 2cbc c35f 603e e4b7 663e 7d72 cf3d
000001c0: 604d b4bb 13d0 163a cb66 9c3e 5730 fb3e
000001d0: b206 8d3e 6fc1 b3bd 6fb8 b83c 0448 52bc
000001e0: 92dc a8bd 28dd fa3e 08bb 693d b268 edbd
000001f0: da5d 2c3e 68a8 c53d a42b 383e 7332 9a3e
00000200: 1a54 3b3e 2d5b f93d 73c4 8e3e 544c 41be
00000210: 1fbd 35be b96b b23e 6014 fb3c 59a4 163f
00000220: 40c4 f03e 97c0 033f b17b 8abc eeaf b13e
00000230: 0a5d 263f 04db 933e 28f0 0e3f 3d70 09be
00000240: f44a b73d 98ea da3e 3730 393e 6235 e83d
00000250: 82f5 243e b38d 5c3e 5215 d0bd 7f46 133d
00000260: dc4e 91be 76d9 e33d b018 5a3d d566 ecbd
00000270: 7930 073e 7c8e 5bbd 2978 f2bd 47f1 8fbc
00000280: 6827 8bbd 605a b43d 11e4 423c 7c6b 9a3d
00000290: a68f 9237 77b2 a03d 8289 5ebd 3a07 4b3c
000002a0: 2e04 a5bc 6b14 193e 7b69 b0bd fc1d 3c3e
000002b0: 33e8 953d 36c6 a93d 06ea 30bc 0911 3abd
000002c0: d1ef 973d ca9a bf3d f405 8e3d 7399 9e3d
000002d0: 9a4e 86bd 47be 00be 4bc1 c3bd 8000 68bd
000002e0: 97c9 46bc afa2 713d 4034 923c 88ff 8f3d
000002f0: a9bb 89bc 6a3d babc e30b b3bd 64e0 193d
00000300: d1b1 513c a8a1 80bd c0d1 023d 6453 25bd
00000310: 3f2c c7bb 196c 15be bcf4 3c3c 4549 633d
00000320: 4297 be3c 8e3c 0ebd b113 db3d 30b2 12bd
00000330: a248 edbb b852 023e 0779 033e a87a 28be
00000340: dada 4e3d f93e 66bc bf3e cc3d ab96 cbba
00000350: 3ff9 b23d ad48 203d d43f acbd f5d6 8abc
00000360: 19d8 00bd 78e3 a4bd c5f4 77be d324 1ebe
00000370: 9053 b7bc 30de f9bd 423b d8bd 50fa 60bd
00000380: b1b2 98bd

gru.weight_ih_l1 f4 [225, 75]
0.029195644 -0.0879603 -0.01473174 0.04732945 -0.09710993 0.14517082 -0.034015458 -0.13174558
-0.10589436 0.12083945 0.12949458 -0.10064117 -0.07581877 -0.036837686 0.10770306 -0.17062123
-0.025848193 -0.12918937 0.031299528 -0.078579105 -0.009994314 0.0808077 0.008231322 -0.035475776
0.05695846 -0.035927337 -0.069312915 -0.031214653 -0.09959664 -0.035945106 -0.10214935 0.006557262
-0.23290691 0.059307344 -0.034881584 0.03901278 -0.0012898355 0.14117676 -0.028111994 0.032339074
0.0946469 0.12545873 0.07643685 0.10312755 -0.07865449 0.039392564 -0.035319492 -0.074320085
-0.12173159 -0.08592677 0.028602514 0.08644386 -0.06956626 0.0681899 0.033335418 -0.066510096
-0.09669228 -0.04133403 0.11301968 -0.12384341 0.03803911 0.043420427 -0.13900994 0.01971096
-0.07743939 0.08974336 -0.024026547 -0.091887526 0.08522807 0.07100769 -0.06838168 -0.035014994
0.04886262 0.13330996 -0.009561279 -0.028779712 0.1597268 -0.054864716 -0.005566601 -0.014540019
-0.0647401 0.1508492 0.051073097 0.024868058 -0.099717334 0.005666979 -0.12814768 0.030642776
0.018187653 -0.04650588 0.07002698 0.05648279 -0.08277068 0.024573147 0.06755458 0.18633911
-0.058374446 0.17407663 -0.08090081 0.15275389 -0.08519011 -0.09239967 0.016291296 0.10056728
-0.03159183 -0.11464582 -0.0085244095 0.017506897 -0.011486138 -0.041667446 -0.15622953 -0.031774156
-0.006975305 -0.036420096 -0.14275104 0.034190785 0.07592701 -0.11663266 -0.18307838 0.084109485
0.01055924 0.04905025 0.009560806 -0.16882044 -0.18622524 0.1892883 0.029588012 -0.13704738
-0.025867905 0.07449059 -0.07693244 0.1676437 0.0175878 -0.061439503 -0.19255264 -0.065462425
0.07415919 -0.053823598 -0.06269025 0.16919753 -0.13622582 -0.14221038 0.013994303 0.0073456354
0.11216628 0.07908051 -0.057550777 -0.056580372 -0.030999484 0.035044488 -0.046764996 0.032630254
-0.16278002 0.060939334 -0.0057711815 -0.12533213 0.0122787785 -0.042225063 0.10002115 0.013713339
0.057033353 -0.05099213 0.1367521 0.029882088 -0.11683754 0.005156314 0.061648194 0.050216407
-0.0091015985 0.0062478613 0.096567325 0.11693723 0.21097328 -0.03725857 -0.10125846 0.03440446
0.06721651 0.010927433 0.06553103 -0.055001706 0.024792828 -0.12947302 0.07544711 0.121037714
0.13885437 -0.022931378 0.12235422 -0.0024266413 0.03612457 0.008863962 -0.011558351 0.06760267
-0.12580791 -0.08969995 0.07988802 0.06161899 0.17381655 -0.1305383 -0.086619124 -0.07620512
0.091887176 -0.10068923 -0.06444083 0.028997546 -0.20764065 0.0866616 -0.025632188 0.040301107
-0.07217059 -0.12837267 -0.10533709 0.097207405 0.13150483 0.11173946 -0.079908155 -0.017661279
0.03558921 0.017796729 -0.056396108 -0.19842269 -0.010466814 -0.07413378 -0.07481012 0.0743441
-0.10464999 0.08238517 0.06415148 0.053549826 0.06420187 -0.032508057 -0.014690262 0.03807659
0.13613713 -0.09636236 -0.09552702 0.03942041 0.10594529 0.020489786 -0.056357708 -0.112996705
0.03966006 0.015782345 0.18057 0.039991867 0.13628261 -0.076508164 -0.065129735 -0.063989826
0.030493038 0.08131259 0.030924337 -0.0152424695 -0.10360279 0.014365154 0.021345234 0.102460004
00000000: b42b ef3c 8824 b4bd 655d 71bc 86dc 413d
00000010: 92e1 c6bd a9a7 143e cb53 0bbd 50e8 06be
00000020: 24df d8bd ac7a f73d 3a9a 043e f51c cebd
00000030: df46 9bbd 1de3 16bd 6c93 dc3d 55b7 2ebe
00000040: 97bf d3bc 384a 04be ef33 003d 15ee a0bd
00000050: 31bf 23bc 827e a53d abdc 063c 0c4f 11bd
00000060: 464d 693d 8b28 13bd eef3 8dbd dfb5 ffbc
00000070: 53f9 cbbd 2d3b 13bd ae33 d1bd 4dde d63b
00000080: 267f 6ebe 42ec 723d fedf 0ebd ddcb 1f3d
00000090: b30f a9ba a490 103e 204b e6bc fa75 043d
000000a0: 3cd6 c13d 4178 003e ec8a 9c3d 8934 d33d
000000b0: 9b15 a1bd 195a 213d 2cab 10bd 2135 98bd
000000c0: 694e f9bd 60fa afbd d24f ea3c 7a09 b13d
000000d0: c178 8ebd 25a7 8b3d b88a 083d 7236 88bd
000000e0: 9a06 c6bd df4d 29bd dd76 e73d 9da1 fdbd
000000f0: e6ce 1b3d 9ed9 313d 9f58 0ebe e178 a13c
00000100: 8b98 9ebd 5ecb b73d 52d3 c4bc 872f bcbd
00000110: 0e8c ae3d 7b6c 913d b20b 8cbd e26b 0fbd
00000120: 2c24 483d 6882 083e e9a6 1cbc 6ec3 ebbc
00000130: 6c8f 233e d3b9 60bd 0968 b6bb 4339 6ebc
00000140: 7596 84bd 3678 1a3e 0632 513d 19b8 cb3c
00000150: 9a38 ccbd 11b2 b93b 2539 03be 8f06 fb3c
00000160: 46fe 943c f37c 3ebd 4e6a 8f3d 7f5a 673d
00000170: ad83 a9bd a04d c93c 0e5a 8a3d aecf 3e3e
00000180: 0b1a 6fbd 2541 323e 53af a5bd 846b 1c3e
00000190: 2778 aebd 0a3c bdbd 5375 853c 38f6 cd3d
000001a0: 6f66 01bd 6dcb eabd f7a9 0bbc a06a 8f3c
000001b0: 5b30 3cbc 7cab 2abd a2fa 1fbe 9e25 02bd
000001c0: 1991 e4bb 3d2d 15bd 542d 12be a30b 0c3d
000001d0: 9f7f 9b3d 1bdd eebd e678 3bbe 9841 ac3d
000001e0: aa00 2d3c eae8 483d eda4 1c3c 44df 2cbe
000001f0: d4b1 3ebe cbd4 413e 8f62 f23c 2656 0cbe
00000200: eee8 d3bc 868e 983d c18e 9dbd caaa 2b3e
00000210: 4a14 903c fda7 7bbd 852c 45be 2a11 86bd
00000220: c6e0 973d 2276 5cbd bf63 80bd 1e42 2d3e
00000230: c87e 0bbe 999f 11be 5c48 653c a8b3 f03b
00000240: 6fb7 e53d f6f4 a13d 5dba 6bbd d2c0 67bd
00000250: a1f2 fdbc cf8a 0f3d a78c 3fbd 4da7 053d
00000260: ceaf 26be 869b 793d 2e1c bdbb 1157 00be
00000270: ee2c 493c 30f4 2cbd e4d7 cc3d eaad 603c
00000280: ce9b 693d 20dd 50bd be08 0c3e 48cb f43c
00000290: 8548 efbd 4cf6 a83b d182 7c3d b8af 4d3d
000002a0: df1e 15bc dcba cc3b 17c5 c53d c97c ef3d
000002b0: 6109 583e 719c 18bd 9860 cfbd b1eb 0c3d
000002c0: cfa8 893d fa08 333c 2235 863d 7849 61bd
000002d0: 541a cb3c 9394 04be 0484 9a3d 9fe2 f73d
000002e0: d72f 0e3e 96da bbbc d994 fa3d 4908 1fbb
000002f0: 5bf7 133d 273a 113c 3d5f 3dbc 4573 8a3d
00000300: cad3 00be 9bb4 b7bd 559c a33d 3264 7c3d
00000310: f7fc 313e d5ab 05be 5e65 b1bd 6e11 9cbd
00000320: 582f bc3d 2836 cebd 8ef9 83bd 438c ed3c
00000330: c09f 54be a37b b13d 98fa d1bc c612 253d
00000340: 2dce 93bd 2074 03be f9ba d7bd ad14 c73d
00000350: 34a9 063e a8d7 e43d e3a6 a3bd 63ae 90bc
00000360: fec5 113d 72ca 913c 9bff 66bd 512f 4bbe
00000370: 007d 2bbc 74d3 97bd 0c36 99bd b841 983d
00000380: bc52 d6bd 8eb9 a83d da61 833d 1057 5b3d
00000390: 457c 833d 2b27 05bd 6daf 70bc 33f6 1b3d
000003a0: 8867 0b3e a159 c5bd aca3 c3bd 4c77 213d
000003b0: d8f9 d83d 32da a73c 57d7 66bd d16a e7bd
000003c0: 9672 223d fa49 813c 58e7 383e 83ce 233d
000003d0: ab8d 0b3e 50b0 9cbd bd62 85bd 190d 83bd
000003e0: 89cc f93c 3787 a63d 0955 fd3c 8dbb 79bc
000003f0: b32d d4bd d35b 6b3c 33dc ae3c 8dd6 d13d

gru.weight_hh_l1 f4 [225, 75]
0.060664 0.11033469 -0.0022104809 -0.013106896 -0.108166724 0.105904005 -0.03423632 0.025353793
0.050662994 -0.156827 -0.0038799632 0.054299146 0.13047785 -0.12758477 0.078471296 -0.123864524
0.15909949 -0.08210873 0.079879835 -0.10563831 -0.094846606 -0.05890223 -0.023126792 0.04793666
-0.038880415 -0.05980672 -0.09561753 0.009281872 -0.074567184 0.032314505 -0.022533163 0.029045597
0.0022875713 -0.04721128 -0.09577579 0.0099287685 0.08654341 -0.1342057 -0.09012826 -0.051520128
0.08403584 -0.055060983 -0.18066327 0.14953771 0.014707853 0.13674933 -0.005483226 -0.09275511
0.06986557 0.072750255 0.04387409 -0.10918898 -0.06022879 -0.028775811 0.007916121 0.15836303
-0.023110934 0.07167101 0.10208757 -0.037129216 0.01062508 -0.07431056 0.033269398 0.09268803
-0.039163783 0.019417275 -0.00026951675 -0.10975105 0.048652157 0.108703546 0.045395292 -0.15262996
-0.077559724 -0.05643521 0.021826157 -0.12752903 -0.036799945 -0.14269434 0.041980844 -0.06079887
0.019431422 0.019034924 0.091967404 0.16560647 -0.10534246 -0.20364937 0.05024658 0.060861155
-0.1172866 -0.055591494 0.0782174 -0.031516943 0.1297848 -0.04509025 -0.15177709 0.06408596
0.1274148 -0.04999831 -0.010337833 0.041947417 0.034113463 -0.19799861 0.042399347 -0.08078986
-0.14326179 -0.015367989 0.033556424 -0.03922077 0.08784939 0.042464938 -0.046717446 -0.06913657
0.07271417 -0.040668637 -0.1377643 0.123276085 0.050572146 0.088405885 0.022936294 0.025260137
-0.031631026 0.06473636 -0.048405316 -0.11640852 0.10240703 0.042400114 -0.048312727 -0.21007545
-0.019199625 -0.017181642 -0.13493419 0.046548463 0.031842858 -0.11190797 -0.11130058 -0.1279038
-0.03845185 0.029945806 -0.013590387 -0.05178585 0.013190601 0.059913836 -0.13256772 -0.0062971846
-0.015908152 0.02724123 -0.05032417 -0.049856078 -0.095640056 -0.07754486 -0.008726564 -0.13042918
-0.16024792 0.025889652 0.122077525 -0.0434155 -0.085811354 0.07980713 0.08345667 0.02117647
0.07120629 0.0042980304 -0.09807501 0.13160896 0.03511172 0.15204921 0.013291675 -0.07227916
0.01437309 -0.053537916 -0.02275449 -0.04931706 -0.025188122 0.0927177 0.0027716758 0.055008594
0.0074302703 -0.017205447 -0.025576495 -0.04301866 -0.07912253 -0.022441803 -0.048914526 -0.12283158
-0.12817454 0.0420707 0.041120496 -0.04717322 0.024342967 -0.06505161 0.16973956 0.039701074
0.15022981 0.026999706 -0.03572091 0.08837928 -0.16739002 0.011147464 0.06447299 0.02937361
0.12305461 -0.11505293 0.016004806 0.04166746 0.021783104 0.009698792 0.062814325 -0.020979831
-0.066767685 0.015103945 0.0037591322 -0.0923177 -0.050407827 -0.1583936 -0.047483876 0.07385962
-0.14740366 -0.093611166 0.086249605 0.10300217 0.011282121 0.10415846 -0.049490117 -0.045262963
-0.12983982 -0.10053926 -0.029894752 0.13663068 -0.0008774797 -0.11506752 0.060862612 -0.10513799
-0.1809235 -0.03401441 -0.12485502 0.100578025 0.08710105 -0.099443726 -0.06839072 0.048559483
-0.017252065 0.040898006 0.0034303402 0.057006516 -0.018547844 0.027028183 0.03837042 -0.083960935
-0.120301254 -0.054980304 -0.057341274 0.14462242 0.08218993 -0.007781192 0.03041288 0.04846633
00000000: d17a 783d 27f7 e13d b7dd 10bb 4ebe 56bc
00000010: 8486 ddbd 33e4 d83d 623b 0cbd c2b2 cf3c
00000020: 0084 4f3d 4297 20be fb46 7ebb c868 5e3d
00000030: fc9b 053e 95a5 02be 8fb5 a03d afac fdbd
00000040: faea 223e 9f28 a8bd 0a98 a33d e658 d8bd
00000050: f03e c2bd 7743 71bd 6674 bdbc 3b59 443d
00000060: 1241 1fbd e4f7 74bd 20d3 c3bd fe12 183c
00000070: aeb6 98bd 375c 043d 7897 b8bc 08f1 ed3c
00000080: 14eb 153b 9d60 41bd 1926 c4bd 46ac 223c
00000090: ac3d b13d 386d 09be 2a95 b8bd c506 53bd
000000a0: fc1a ac3d a087 61bd cbff 38be 6a20 193e
000000b0: 35f9 703c 0408 0c3e a2ac b3bb 64f6 bdbd
000000c0: ae15 8f3d 16fe 943d 51b5 333d 799e dfbd
000000d0: 77b2 76bd 40bb ebbc 9eb2 013c eb29 223e
000000e0: 2453 bdbc 40c8 923d 4a13 d13d ce14 18bd
000000f0: d114 2e3c 2330 98bd 7e45 083d 39d3 bd3d
00000100: 346a 20bd fa10 9f3c ed4d 8db9 29c5 e0bd
00000110: 7c47 473d f79f de3d 6af0 393d 074b 1cbe
00000120: a2d7 9ebd 9b28 67bd c5cc b23c f896 02be
00000130: 8abb 16bd 771e 12be 1bf4 2b3d 3c08 79bd
00000140: a52e 9f3c 21ef 9b3c 6859 bc3d be94 293e
00000150: cabd d7bd 7689 50be 5ccf 4d3d 8c49 793d
00000160: f533 f0bd e8b3 63bd 7230 a03d e917 01bd
00000170: 4ee6 043e 8eb0 38bd 746b 1bbe 803f 833d
00000180: 0679 023e 07cb 4cbd 0460 29bc 0ed1 2b3d
00000190: 8fba 0b3d 26c0 4abe f0aa 2d3d 2775 a5bd
000001a0: 38b3 12be 05ca 7bbc 7672 093d f5a5 20bd
000001b0: 62ea b33d b7ef 2d3d cb5a 3fbd 7997 8dbd
000001c0: 2beb 943d 2894 26bd 1612 0dbe 2c78 fc3d
000001d0: bd24 4f3d 250e b53d e5e4 bb3c 59ee ce3c
000001e0: 898f 01bd 7f94 843d a744 46bd 9767 eebd
000001f0: c7ba d13d beab 2d3d 91e3 45bd 051e 57be
00000200: 8848 9dbc 84c0 8cbc 302c 0abe 9aa9 3e3d
00000210: a86d 023d 0130 e5bd 8ff1 e3bd 37f9 02be
00000220: b07f 1dbd e850 f53c 37aa 5ebc 661d 54bd
00000230: 641d 583c 3668 753d d5bf 07be 9d58 cebb
00000240: d051 82bc 0029 df3c b820 4ebd e335 4cbd
00000250: efde c3bd d7cf 9ebd ddf9 0ebc 3a8f 05be
00000260: 0818 24be 8916 d43c c803 fa3d 74d4 31bd
00000270: ddbd afbd ec71 a33d 55eb aa3d 477a ad3c
00000280: 9ad4 913d 7ed6 8c3b 8ddb c8bd 80c4 063e
00000290: 4fd1 0f3d cab2 1b3e 53c5 593c 1907 94bd
000002a0: 1c7d 6b3c 934a 5bbd a067 babc af00 4abd
000002b0: 5257 cebc c7e2 bd3d 01a5 353b b150 613d
000002c0: a079 f33b 70f2 8cbc cc85 d1bc 5634 30bd
000002d0: fe0a a2bd dfd7 b7bc 995a 48bd 208f fbbd
000002e0: 3040 03be 5452 2c3d f76d 283d b538 41bd
000002f0: e76a c73c c739 85bd 35d0 2d3e 989d 223d
00000300: d8d5 193e 7d2e dd3c 1750 12bd 3200 b53d
00000310: 4a68 2bbe daa3 363c 6a0a 843d eda0 f03c
00000320: 0e04 fc3d dfa0 ebbd 831c 833c 80ab 2a3d
00000330: 7b72 b23c afe7 1e3c cca4 803d e5dd abbc
00000340: 7fbd 88bd 8976 773c c65b 763b 1011 bdbd
00000350: 7078 4ebd ef31 22be 747e 42bd b643 973d
00000360: fcf0 16be 36b7 bfbd a2a3 b03d cdf2 d23d
00000370: a5d8 383c 0851 d53d 26b6 4abd a865 39bd
00000380: bbf4 04be 87e7 cdbd d7e5 f4bc eae8 0b3e
00000390: aa06 66ba 85a8 ebbd 134b 793d 9652 d7bd
000003a0: 0344 39be b252 0bbd fdb3 ffbd dafb cd3d
000003b0: 0962 b23d 27a9 cbbd 6f10 8cbd 4fe6 463d
000003c0: 3454 8dbc ab84 273d 8fcf 603b aa7f 693d
000003d0: a6f1 97bc 356a dd3c 4d2a 1d3d b6f3 abbd
000003e0: 8160 f6bd 0733 61bd afde 6abd e617 143e
000003f0: 3253 a83d 5ff9 febb 6f24 f93c a184 463d

gru.bias_ih_l1 f4 [225]
-0.013987814 -0.19896463 -0.041061226 0.008570367 -0.052601147 0.03528875 -0.09390665 0.05343514
-0.08740169 -0.09340209 -0.050339513 -0.011692606 0.0850369 0.035994574 -0.10305883 -0.047132563
-0.029141286 0.040277395 -0.006329214 -0.0013102872 -0.075655036 -0.0032044642 0.036947936 -0.0060461466
0.04182095 0.014525506 -0.04355115 0.03953589 -0.021537082 0.05041609 -0.106659 -0.0025160897
-0.098269925 0.04625778 -0.092803925 -0.12859993 -0.12380582 0.09021576 -0.032060504 0.012131781
0.050061606 -0.13291061 -0.010821027 0.07246932 0.02510099 -0.024184205 0.058715414 0.129862
-0.047742013 -0.15176058 0.14025848 -0.07627855 -0.01100362 -0.13486864 -0.06859436 -0.01319002
0.026655557 -0.080285855 0.005463972 -0.03811885 -0.122125626 -0.0016274392 0.08407878 -0.046668213
0.019394033 0.03154539 0.08076304 -0.098674126 0.08980494 -0.06544618 -0.10526778 0.08095559
-0.08924152 -0.0725187 -0.07660369 0.045398515 -0.016253991 0.22395407 0.33284897 0.3639673
0.302457 0.2350696 0.24752246 0.18871255 0.23259717 0.19664279 0.21011375 0.2846095
0.0020000467 -0.16054659 0.2914671 0.2687263 0.20017336 0.3314056 -0.16966426 0.011742117
0.264337 0.085659966 0.4410228 0.16532096 0.28973174 0.2280461 0.30134845 0.22274242
0.33037812 0.10772234 0.25064147 0.22036438 -0.055422444 0.27978885 0.16562302 0.1181729
0.24368848 0.1170675 0.08527017 -0.062160946 0.026752565 0.4067484 0.13723603 -0.014128407
0.25847703 0.14453977 0.4026366 -0.025907127 0.10555125 0.23824516 -0.007579448 -0.1932469
0.3539219 0.17169738 0.22528417 0.13436493 0.26513878 0.19240509 0.34071565 0.09805055
0.21965739 -0.031138487 0.0012462249 0.3060876 0.31522217 0.33404967 0.27038342 0.1760578
0.23413146 0.22401647 0.31129012 0.22955967 0.11370516 0.055693276 0.110416524 0.044214576
0.06865127 -0.10013833 0.030918488 0.03090399 0.006008128 0.088757105 -0.05245023 0.06344391
0.09722615 0.007981469 -0.05864743 0.033790387 -0.061595153 -0.021141939 0.06491727 -0.10573706
-0.061754275 0.107220314 -0.054263826 -0.075659916 -0.08836749 -0.04487902 -0.08976623 0.07118684
0.114989504 -0.015862254 -0.09447728 0.081051484 -0.096495554 -0.112262845 -0.019342588 -0.07497232
0.07254387 0.0048564337 -0.015224179 -0.020447256 0.10076236 -0.09186967 0.062252358 -0.09349207
0.045606412 -0.0018336766 0.007154576 -0.010191769 0.001703908 0.02569186 0.05698051 0.08330829
-0.11704135 0.0949202 0.13455957 0.08344708 0.04666308 0.008429279 0.09495261 0.00794017
-0.02817657 0.06839892 0.007834264 0.07525188 -0.048947513 0.088727094 0.059425414 -0.02005219
-0.018136082 -0.08903422 0.06759001 0.03338004 -0.025384067 0.049264364 -0.06939324 0.080491625
0.04613986
00000000: 252d 65bc 62bd 4bbe d12f 28bd b96a 0c3c
00000010: 4d74 57bd f08a 103d 2152 c0bd cede 5a3d
00000020: a8ff b2bd 9849 bfbd ce30 4ebd 5892 3fbc
00000030: d427 ae3d 0c6f 133d 8210 d3bd 130e 41bd
00000040: b5b9 eebc e9f9 243d 4c65 cfbb f1bd abba
00000050: 07f1 9abd fd01 52bb b856 173d c11e c6bb
00000060: 724c 2b3d 63fc 6d3c b162 32bd 63f0 213d
00000070: 896e b0bc 1a81 4e3d 0970 dabd fbe4 24bb
00000080: be41 c9bd cc78 3d3d fc0f bebd b3af 03be
00000090: e88d fdbd 0ac3 b83d e051 03bd 61c4 463c
000000a0: 660d 4d3d b819 08be ad4a 31bc cb6a 943d
000000b0: 97a0 cd3c f41d c6bc 937f 703d 8bfa 043e
000000c0: 218d 43bd 2067 1bbe eb9f 0f3e ee37 9cbd
000000d0: 8748 34bc 011b 0abe 337b 8cbd f41a 58bc
000000e0: c15c da3c e96c a4bd 1f0b b33b 8322 1cbd
000000f0: 001d fabd cc4f d5ba 7f31 ac3d 2b27 3fbd
00000100: 3ce0 9e3c bd35 013d 1867 a53d a915 cabd
00000110: a7eb b73d a608 86bd a296 d7bd 0bcc a53d
00000120: 42c4 b6bd af84 94bd 65e2 9cbd cbf3 393d
00000130: 1727 85bc 3754 653e 2e6b aa3e ec59 ba3e
00000140: a5db 9a3e 16b6 703e 8776 7d3e dd3d 413e
00000150: f42d 6e3e ba5c 493e 0f28 573e 56b8 913e
00000160: 3713 033b 5366 24be 2d3b 953e 7e96 893e
00000170: 3ffa 4c3e ffad a93e 78bc 2dbe 0262 403c
00000180: 2e57 873e 7e6e af3d becd e13e e649 293e
00000190: b857 943e eb84 693e 584a 9a3e 9716 643e
000001a0: 5227 a93e 889d dc3d 1454 803e 33a7 613e
000001b0: a502 63bd 7c40 8f3e 1599 293e a204 f23d
000001c0: 7989 793e 16c1 ef3d 20a2 ae3d 7a9c 7ebd
000001d0: 3228 db3c 5441 d03e 9a87 0c3e d67a 67bc
000001e0: 1a57 843e 3c02 143e 6226 ce3e 2f3b d4bc
000001f0: 412b d83d 8af6 733e 055d f8bb 84e2 45be
00000200: 4035 b53e 70d1 2f3e e5b0 663e f696 093e
00000210: 45c0 873e d705 453e 4872 ae3e bace c83d
00000220: deed 603e 2416 ffbc 5e58 a33a 84b7 9c3e
00000230: cd64 a13e 8f08 ab3e b26f 8a3e 7f48 343e
00000240: 28c0 6f3e 9364 653e 6b61 9f3e b111 6b3e
00000250: 40de e83d a21e 643d 0f22 e23d 581a 353d
00000260: 0999 8c3d 5315 cdbd c548 fd3c 5d2a fd3c
00000270: d5df c43b 49c6 b53d 0dd6 56bd e1ee 813d
00000280: 811e c73d b5c4 023c 4a38 70bd ca67 0a3d
00000290: 334b 7cbd dc31 adbc 58f3 843d ac8c d8bd
000002a0: 0df2 7cbd 5396 db3d bf43 5ebd 96f3 9abd
000002b0: 04fa b4bd 10d3 37bd 5bd7 b7bd 68ca 913d
000002c0: 9e7f eb3d 8ff1 81bc 4e7d c1bd 52fe a53d
000002d0: 769f c5bd 10ea e5bd 5974 9ebc 168b 99bd
000002e0: e191 943d b822 9f3b d66e 79bc 0181 a7bc
000002f0: 7f5c ce3d 2a26 bcbd 54fc 7e3d c578 bfbd
00000300: cacd 3a3d fa57 f0ba ef70 ea3b 61fb 26bc
00000310: aa55 df3a bc77 d23c 6564 693d 899d aa3d
00000320: 60b3 efbd 8665 c23d fcc9 093e 4de6 aa3d
00000330: c921 3f3d f51a 0a3c 8476 c23d 7d17 023c
00000340: 8dd2 e6bc bc14 8c3d 495b 003c a81d 9a3d
00000350: 307d 48bd 8db6 b53d 1068 733d 7e44 a4bc
00000360: 1f92 94bc 9357 b6bd a26c 8a3d 82b9 083d
00000370: 3ff2 cfbc 6ec9 493d 0b1e 8ebd cbd8 a43d
00000380: 26fd 3c3d

gru.bias_hh_l1 f4 [225]
-0.107748635 0.012921313 -0.09410872 0.034371316 0.09823336 -0.04355306 0.07803385 -0.026447855
-0.00989211 -0.0011101129 0.030157426 -0.0031183143 -0.07005017 -0.101440705 -0.017653476 -0.022173563
0.04790912 0.016565064 -0.056261674 -0.1241449 -0.087255426 -0.044806246 -0.09134837 0.07317446
-0.110934906 0.11238288 0.042288974 0.083906345 -0.13525885 -0.04241657 -0.03550384 0.08719931
-0.13071775 -0.0310562 -0.012348721 0.04643619 0.04579179 0.09564737 -0.009984041 -0.090758145
0.043332163 -0.09772306 -0.036349114 -0.033997368 0.01572831 0.038454026 -0.017620584 -0.04532818
-0.038339134 -0.030259999 0.12538925 -0.092645995 0.058609337 -0.08215327 0.045122858 -0.06512674
-0.09154403 -0.09296565 -0.12896438 0.03426549 0.07588143 0.072032966 -0.13349403 -0.0662635
0.07712777 0.042729534 -0.057919562 0.01139616 0.08845835 0.05238233 0.114894435 -0.07031094
0.023812814 0.016326653 0.04787876 0.021247761 0.07636719 0.29596475 0.31280378 0.39233172
0.24135531 0.1667541 0.43094784 0.2993264 0.27252626 0.13171577 0.21288447 0.39151525
0.13963841 -0.09536899 0.2534145 0.2673789 0.1857553 0.31344587 -0.02721717 0.18555044
0.3047311 0.16048262 0.32441008 0.108275704 0.3392413 0.18743278 0.35092854 0.3058009
0.20846781 0.09985883 0.18927164 0.29180416 -0.017399035 0.25066575 0.29737425 0.11867008
0.32273814 0.17833212 0.05074561 0.07891439 0.12716879 0.39618134 -0.012720321 -0.0009860964
0.31569028 0.24475273 0.39881742 -0.025080334 0.03261532 0.24762219 0.1677472 -0.17016685
0.25244576 0.04703105 0.28859046 0.12230763 0.08753809 0.2646626 0.31264746 0.27945587
0.27041072 0.16750152 -0.0063879904 0.1370003 0.22403575 0.31779525 0.2031267 0.37459815
0.43072423 0.40429875 0.4641705 0.35358417 0.08131812 0.04172932 -0.03305357 0.05380221
0.06283746 -0.053347502 0.046014242 -0.057140976 -0.12061775 -0.09667076 0.05105206 0.09924245
0.04384933 0.044069663 -0.07770849 0.07667583 0.06351391 -0.038852073 -0.024290852 -0.049821936
0.007210823 -0.035176013 -0.02557959 -0.07069615 0.058404695 -0.110703185 0.07857927 -0.100065574
0.04012815 -0.099523686 0.06864066 0.07241753 -0.072577626 -0.06595333 0.049100824 0.11473975
0.009720825 0.0559345 -0.03794329 0.029541682 0.095513225 0.092699364 -0.091621615 0.085153095
0.074637644 -0.03643771 0.00921418 -0.10517312 0.0787542 -0.033031795 0.027501196 -0.02975819
-0.11947627 -0.023740668 0.09481438 0.07750771 -0.103618845 0.019340489 0.014625089 -0.0811493
0.054069974 0.020792944 -0.019184291 0.0057844315 -0.10149109 -0.018530814 -0.00040356812 -0.0950745
-0.061421737 0.033235308 -0.063872665 -0.09495031 0.12238678 0.015666055 -0.054227564 -0.050571002
-0.009985712
00000000: 51ab dcbd eab3 533c 13bc c0bd f0c8 0c3d
00000010: 922e c93d b264 32bd 36d0 9f3d 2ca9 d8bc
00000020: 8412 22bc 3581 91ba b50c f73c a25c 4cbb
00000030: 7776 8fbd 25c0 cfbd 069e 90bc 55a5 b5bc
00000040: 5a3c 443d 75b3 873c a472 66bd ae3f febd
00000050: f9b2 b2bd c186 37bd db14 bbbd 7edc 953d
00000060: d731 e3bd ff28 e63d 3437 2d3d 17d7 ab3d
00000070: 4c81 0abe ffbc 2dbd 796c 11bd 8d95 b23d
00000080: e0da 05be 9269 febc 4a52 4abc e033 3e3d
00000090: 2c90 3b3d c5e2 c33d 1a94 23bc 68df b9bd
000000a0: 117d 313d 0723 c8bd cfe2 14bd d340 0bbd
000000b0: a8d8 803c f881 1d3d 0b59 90bc 0baa 39bd
000000c0: 7f09 1dbd d1e3 f7bc 0a66 003e 2fbd bdbd
000000d0: 5810 703d f93f a8bd bfd2 383d 2b61 85bd
000000e0: 707b bbbd c664 bebd 3d0f 04be f859 0c3d
000000f0: b967 9b3d 0586 933d a9b2 08be 28b5 87bd
00000100: 2af5 9d3d 2a05 2f3d 103d 6dbd f6b6 3a3c
00000110: a729 b53d db8e 563d c64d eb3d 2fff 8fbd
00000120: 1713 c33c 79bf 853c 851c 443d c90f ae3c
00000130: 6766 9c3d b188 973e d127 a03e b4df c83e
00000140: d925 773e 96c1 2a3e 32a5 dc3e 4f41 993e
00000150: 9088 8b3e 80e0 063e 63fe 593e b074 c83e
00000160: 5ffd 0e3e d150 c3bd 8cbf 813e e3e5 883e
00000170: a336 3e3e fa7b a03e 8bf6 debc ef00 3e3e
00000180: b705 9c3e 8e55 243e 1419 a63e a7bf dd3d
00000190: 09b1 ad3e 61ee 3f3e e8ac b33e f091 9c3e
000001a0: 9678 553e c982 cc3d 6dd0 413e 5b67 953e
000001b0: 6c88 8ebc 4357 803e 7041 983e 4d09 f33d
000001c0: ef3d a53e b29c 363e a1da 4f3d de9d a13d
000001d0: 8938 023e 48d8 ca3e e568 50bc e83f 81ba
000001e0: 28a2 a13e 76a0 7a3e cc31 cc3e 4675 cdbc
000001f0: a497 053d ac90 7d3e ecc5 2b3e 3840 2ebe
00000200: 9240 813e a1a3 403d 21c2 933e 6c7c fa3d
00000210: 2c47 b33d db81 873e 5413 a03e d714 8f3e
00000220: 4673 8a3e 8585 2b3e 5952 d1bb cf49 0c3e
00000230: a169 653e 0fb6 a23e 7200 503e 54cb bf3e
00000240: e387 dc3e 3f00 cf3e c1a7 ed3e fc08 b53e
00000250: 1d8a a63d 5dec 2a3d 2e63 07bd b55f 5c3d
00000260: edb0 803d e982 5abd 6e79 3c3d a80c 6abd
00000270: 7006 f7bd 52fb c5bd f71b 513d a03f cb3d
00000280: 5b9b 333d 6482 343d a125 9fbd 3808 9d3d
00000290: 9513 823d 5a23 1fbd 9cfd c6bc 1612 4cbd
000002a0: c448 ec3b b914 10bd 4a8c d1bc 25c9 90bd
000002b0: c339 6f3d 5ab8 e2bd 2bee a03d 2eef ccbd
000002c0: 6a5d 243d 13d3 cbbd 7993 8c3d a44f 943d
000002d0: 94a3 94bd 8a12 87bd f21d 493d adfc ea3d
000002e0: 1844 1f3c 931b 653d 6c6a 1bbd 6601 f23c
000002f0: 709c c33d 2ad9 bd3d 1da4 bbbd bf64 ae3d
00000300: 9fdb 983d b53f 15bd 12f7 163c 0165 d7bd
00000310: e249 a13d 594c 07bd 304a e13c 73c7 f3bc
00000320: faaf f4bd ca7b c2bc 0b2e c23d 5dbc 9e3d
00000330: 1e36 d4bd f26f 9e3c 129e 6f3c 9b31 a6bd
00000340: 7a78 5d3d f755 aa3c 6028 9dbc 548b bd3b
00000350: 90da cfbd efcd 97bc ff95 d3b9 6bb6 c2bd
00000360: 5c95 7bbd bf21 083d accf 82bd 4f75 c2bd
00000370: eca5 fa3d 1956 803c b91d 5ebd 8a23 4fbd
00000380: 1d9b 23bc
