model (1).pth (torch_old, 363538 bytes, 13 tensors)

gru.weight_ih_l0 f4 [225, 50]
0.1038035 -0.21120073 -0.1110643 -0.10831496 -0.005634009 0.21321039 0.13753444 0.12308506
0.14373706 0.01901993 -0.11653211 -0.0025000193 0.013688855 -0.066633016 -0.07082414 -0.18083991
0.038825855 0.31532943 -0.027923588 0.2295938 0.02783112 0.24205858 0.09640001 0.018171694
-0.06343308 0.0327739 0.14855143 -0.10195724 -0.10006867 -0.035635486 0.004477137 0.07740299
-0.029799204 -0.10818312 -0.026944168 0.16683905 -0.03946211 0.1427128 0.3021305 0.087777205
0.008239773 -0.0703114 0.055293575 0.030860921 -0.14811857 -0.19543785 -0.25411084 -0.089848936
0.2164034 0.0678137 -0.007929753 0.037355416 0.007814919 0.11281894 0.09714195 -0.09681391
-0.07551763 -0.02169963 0.105162255 -0.050656635 0.053926844 -0.22996402 -0.12972495 0.04955894
-0.05327905 -0.04059802 -0.10571854 0.16774058 0.011981042 0.101185255 0.18804228 0.056643847
0.06390329 0.18906108 -0.010445031 0.10373233 -0.042288397 -0.06907338 -0.09062158 -0.03402887
0.012306223 0.3028359 0.103208244 0.14389214 0.038056303 -0.026780106 0.04389799 0.06688578
0.1525363 0.0028906777 -0.0587821 -0.17911898 -0.06796119 -0.058243707 0.009507485 -0.020007422
0.08042434 0.11538102 0.049727947 0.05286185 0.023074608 0.29675296 0.09898257 0.123162016
-0.026030932 0.24976039 0.13102843 0.1484227 0.10064817 -0.0007410225 0.09637686 0.034098756
0.12785684 -0.011235095 -0.027370714 0.055025887 -0.07852275 -0.15546155 0.078312136 0.14478871
0.0868983 0.046895932 -0.0018258792 0.038736053 0.10127348 -0.073008455 -0.15216501 -0.21202056
-0.058622826 0.061052237 -0.026470345 0.07378714 -0.024874667 -0.0125523135 -0.15936795 -0.08780696
0.1983864 -0.28303394 0.14805616 -0.16145961 0.05348712 0.04781642 -0.09555228 -0.0880394
-0.21526967 -0.11078101 -0.0071155247 -0.10733329 0.022147208 -0.0009206097 -0.06401664 0.009402733
0.009522995 0.0041053104 0.04921945 0.17930117 0.009921474 0.04471367 0.07886295 0.1471452
-0.21705374 -0.12897791 -0.018390609 0.10944452 0.10928038 -0.032840956 0.054893333 0.115192436
0.06817651 0.08877846 0.21229482 0.0020015354 -0.070843786 0.15426733 -0.042323224 0.0955201
-0.09003093 -0.09593874 0.12381682 0.09916157 -0.028316038 -0.0053558904 -0.041861348 -0.16156998
0.16041744 0.07049023 0.20907159 -0.102842845 0.008366602 0.04772843 -0.04244267 0.046942115
-0.14214922 -0.062385753 -0.14364769 -0.12130566 0.052918356 0.09756978 0.07927187 0.1345115
0.011508807 0.012017221 0.051161893 -0.03879318 0.15390077 0.052090243 -0.14028905 -0.07880578
-0.22518799 -0.07706108 0.068357825 0.0642473 -0.12871662 -0.05256673 0.15470938 0.20088707
0.2052907 0.19558814 -0.2417454 -0.055352125 0.036501013 0.25662234 0.13380794 -0.029533686
0.12324474 -0.15799358 -0.06795051 0.030805657 -0.047481455 -0.2798941 0.10929202 0.037604082
-0.023658503 -0.05874581 -0.2252695 0.029191278 0.12858848 -0.012041179 0.021275263 -0.118174
-0.006543446 0.37313202 0.040240634 -0.18915051 -0.3349789 0.053644888 -0.087476 -0.29120973
-0.042466216 -0.071249954 0.17937665 0.3239716 -0.28521577 -0.117321916 0.13525236 0.306668
00000000: ee96 d43d 0145 58be ae75 e3bd 3cd4 ddbd
00000010: 7e9d b8bb d353 5a3e d4d5 0c3e 0514 fc3d
00000020: cf2f 133e afcf 9b3c 63a8 eebd 5dd7 23bb
00000030: 3847 603c e476 88bd 3f0c 91bd 192e 39be
00000040: dc07 1f3d dc72 a13e 02c0 e4bc a31a 6b3e
00000050: 17fe e33c 34de 773e 5e6d c53d cedc 943c
00000060: 34e9 81bd ed3d 063d de1d 183e f5ce d0bd
00000070: cef0 ccbd 84f6 11bd f2b4 923b 7585 9e3d
00000080: 761d f4bc 1d8f ddbd 04ba dcbc dbd7 2a3e
00000090: 05a3 21bd 4e23 123e d9b0 9a3e 89c4 b33d
000000a0: 1d00 073c 6cff 8fbd 847b 623d 0bd0 fc3c
000000b0: 65ac 17be dc20 48be d11a 82be b802 b8bd
000000c0: da98 5d3e e9e1 8a3d cbeb 01bc fe01 193d
000000d0: 250a 003c 9e0d e73d 5cf2 c63d 5f46 c6bd
000000e0: fda8 9abd 6cc3 b1bc 4f5f d73d 557d 4fbd
000000f0: 65e2 5c3d b07b 6bbe 9ed6 04be 51fe 4a3d
00000100: 223b 5abd 1c4a 26bd f682 d8bd 30c4 2b3e
00000110: 224c 443c 373a cf3d 288e 403e 6103 683d
00000120: badf 823d 3a99 413e a321 2bbc 9e71 d43d
00000130: 9936 2dbd 5876 8dbd cf97 b9bd db61 0bbd
00000140: 0aa0 493c 4f0d 9b3e d85e d33d 7658 133e
00000150: ede0 1b3d f461 dbbc 61ce 333d 69fb 883d
00000160: 7a32 1c3e 8671 3d3b 80c5 70bd f76a 37be
00000170: 3d2f 8bbd f490 6ebd 48c5 1b3c 9be6 a3bc
00000180: 84b5 a43d e24c ec3d 88af 4b3d ab85 583d
00000190: f606 bd3c 01f0 973e 60b7 ca3d 5e3c fc3d
000001a0: d23e d5bc 30c1 7f3e 512c 063e 1ffc 173e
000001b0: a120 ce3d 2e41 42ba 3b61 c53d 23ab 0b3d
000001c0: e7ec 023e 6713 38bc 8c38 e0bc d362 613d
000001d0: 89d0 a0bd 5031 1fbe 1d62 a03d 7e43 143e
000001e0: bcf7 b13d f315 403d 5752 efba b2a9 1e3d
000001f0: 7868 cf3d 7585 95bd 25d1 1bbe eb1b 59be
00000200: 7d1e 70bd e911 7a3d 56d8 d8bc b61d 973d
00000210: f5c5 cbbc 38a8 4dbc 5a31 23be 23d4 b3bd
00000220: ce25 4b3e d3e9 90be 099c 173e ab55 25be
00000230: 4f15 5b3d 27db 433d eab0 c3bd 004e b4bd
00000240: a76f 5cbe 27e1 e2bd 5929 e9bb 8ed1 dbbd
00000250: 106e b53c 1255 71ba 281b 83bd ec0d 1a3c
00000260: 5606 1c3c d785 863b 569a 493d ba9a 373e
00000270: ae8d 223c ae25 373d e682 a13d 3bad 163e
00000280: 5643 5ebe c912 04be e7a7 96bc 7324 e03d
00000290: 64ce df3d 3d84 06bd d5d7 603d 03ea eb3d
000002a0: 20a0 8b3d 7bd1 b53d d063 593e 312c 033b
000002b0: 8c16 91bd 41f8 1d3e 1e5b 2dbd 0ba0 c33d
000002c0: 2362 b8bd 887b c4bd ac93 fd3d 3915 cb3d
000002d0: 09f7 e7bc 7780 afbb ce76 2bbd 9a72 25be
000002e0: 7844 243e 2f5d 903d dd16 563e 459f d2bd
000002f0: 1214 093c e37e 433d 5dd8 2dbd 6046 403d
00000300: 918f 11be 3488 7fbd 6118 13be 1a6f f8bd
00000310: ebc0 583d aad2 c73d 4a59 a23d 62bd 093e
00000320: 6f8f 3c3c e1e3 443c 228f 513d 99e5 1ebd
00000330: 2a98 1d3e 945c 553d efa7 0fbe ed64 a1bd
00000340: ae97 66be 33d2 9dbd 30ff 8b3d 1794 833d
00000350: 4ace 03be 3650 57bd 236c 1e3e 57b5 4d3e
00000360: ba37 523e 4248 483e 1b8c 77be e9b8 62bd
00000370: 1682 153d 0164 833e f304 093e a1f0 f1bc
00000380: bd67 fc3d 12c9 21be a329 8bbd 255c fc3c
00000390: ea7b 42bd 484e 8fbe 7fd4 df3d bd06 1a3d
000003a0: 7acf c1bc 729f 70bd 0cad 66be 8c22 ef3c
000003b0: b3ac 033e 5e48 45bc 7649 ae3c 3605 f2bd
000003c0: 676a d6bb 290b bf3e 5dd3 243d acb0 41be
000003d0: 5b82 abbe beba 5b3d 9e26 b3bd 7119 95be
000003e0: 0ef1 2dbd 7feb 91bd 83ae 373e 9bdf a53e
000003f0: cd07 92be 7946 f0bd 987f 0a3e 9703 9d3e

gru.weight_hh_l0 f4 [225, 75]
-0.020206356 -0.019438243 -0.07437675 0.037035428 0.104559645 -0.07490334 -0.020688541 -0.3028389
0.10644747 0.06959408 0.076503605 -0.05508818 0.024855299 -0.13971925 0.0006943347 0.15157002
0.06785952 -0.04787018 -0.20661615 -0.17309967 -0.006752041 0.04993162 -0.0138044935 -0.0017387758
-0.05115715 0.19543636 -0.04469218 -0.013010481 -0.020712344 0.08036745 -0.040767834 -0.093697906
-0.005071953 0.27726245 0.033802133 -0.094812855 0.20992099 0.057717934 0.2270863 -0.19313228
-0.13674483 0.06308252 0.07451035 0.013928587 0.08315956 0.13164812 0.12574667 0.18917315
-0.017539976 -0.21411236 -0.1360686 -0.054273978 -0.0057912087 0.011043269 -0.0648979 0.11272249
-0.11068717 0.037873548 -0.066263154 0.075904116 0.0074455403 0.112675145 0.07115019 0.10553134
0.028818179 0.043941457 -0.1361321 -0.094073795 0.122451894 0.051702674 -0.12211056 -0.19086018
0.054298833 0.03688107 -0.004201864 -0.07598123 0.1343317 0.1360544 0.075026624 0.0047093234
0.049772594 -0.100981735 -0.13270879 -0.0920834 0.048301272 0.05921739 0.102065146 0.12358467
0.08258208 0.00058864726 -0.062056243 0.15271229 0.04140983 0.017078625 -0.02868469 0.13458711
-0.102953255 -0.09515189 -0.08267959 -0.19473815 -0.0076840697 0.033232417 -0.19442853 -0.094622284
-0.06478695 0.06374241 0.16950235 0.08947485 -0.21974877 -0.12015645 0.123479106 0.05796939
0.006982883 -0.05671332 -0.15720926 -0.10825203 0.061263744 0.13839161 -0.0011399308 0.047260992
-0.075093575 -0.07013861 0.06583719 -0.1471821 -0.095596865 0.05529419 0.21600991 0.09804553
-0.03274213 0.013456555 -0.1368212 0.11363854 -0.12554908 -0.0867757 0.054352727 -0.1706655
0.020248696 0.12702224 -0.039221648 0.09993805 -0.15367673 -0.14076218 0.050181493 0.024663612
0.17738916 0.12972476 -0.059634555 0.019736579 0.11648784 -0.077139795 -0.029333275 -0.17824371
0.061899964 0.055338614 0.092955954 -0.22423619 0.0023474128 -0.09070357 0.043527998 -0.051011954
0.08601097 -0.11023578 -0.08443114 0.028889587 0.006696474 0.090263925 -0.0014455547 0.015612517
-0.07369856 0.01688972 0.004947906 0.1243367 -0.023800733 0.120038055 0.08017774 -0.07017724
-0.17478505 -0.15904377 0.25451943 -0.07699291 0.0276845 -0.116802864 0.041445 -0.07776019
0.051181715 -0.08869875 0.0648263 -0.016202064 0.15035889 -0.055497922 0.062158596 -0.024301713
0.19581357 -0.11551202 0.01633429 0.16418466 -0.1718473 0.019287413 0.04862599 -0.17335628
-0.0974701 0.1121232 0.0078850705 -0.18673052 0.23769343 -0.11862609 -0.097440906 -0.06281397
-0.06637038 0.017519848 -0.08768219 -0.08581871 0.0018774769 0.068294525 0.047102682 0.10250051
0.0298754 -0.014103553 0.20216571 -0.0930674 -0.090723515 -0.18621422 -0.012633772 0.12571865
0.09566161 0.08725488 -0.04965418 0.0518283 0.018240128 -0.061089836 0.07514814 -0.09890807
-0.09441581 0.06753577 0.056490757 0.16467139 -0.0022888856 -0.062334552 0.10923342 0.15733008
-0.06261271 -0.04796038 -0.069719866 0.08586238 -0.089517966 0.10541797 0.12084681 -0.005177623
0.15527458 -0.113115974 0.16220911 -0.16627046 -0.12116365 -0.02147042 -0.17067283 -0.09085852
00000000: cd87 a5bc f33c 9fbc d652 98bd 76b2 173d
00000010: 5e23 d63d ec66 99bd 047b a9bc b30d 9bbe
00000020: 2201 da3d 5787 8e3d ecad 9c3d 25a4 61bd
00000030: 579d cb3c 9012 0fbe 0304 363a 2c35 1b3e
00000040: eff9 8a3d 8613 44bd 2f93 53be 0a41 31be
00000050: 3a40 ddbb 1985 4c3d 3e2c 62bc a2e7 e3ba
00000060: 298a 51bd 7820 483e 260f 37bd ea29 55bc
00000070: efac a9bc b197 a43d 2cfc 26bd b0e4 bfbd
00000080: a032 a6bb 58f5 8d3e 1b74 0a3d 3e2d c2bd
00000090: 87f5 563e a469 6c3d 5089 683e 78c4 45be
000000a0: d606 0cbe 6931 813d e298 983d ba34 643c
000000b0: 8f4f aa3d c4ce 063e bcc3 003e 9bb6 413e
000000c0: ffaf 8fbc 4540 5bbe 9155 0bbe 644e 5ebd
000000d0: 2ec4 bdbb d4ee 343c 31e9 84bd 0ddb e63d
000000e0: f4af e2bd 4b21 1b3d fab4 87bd 9e73 9b3d
000000f0: b8f9 f33b 3ac2 e63d 31b7 913d d120 d83d
00000100: 1a14 ec3c f5fb 333d 3766 0bbe c3a9 c0bd
00000110: 0fc8 fa3d 2fc6 533d 1a15 fabd da70 43be
00000120: 7468 5e3d 9b10 173d caaf 89bb 0c9c 9bbd
00000130: 408e 093e d851 0b3e 8fa7 993d ab50 9a3b
00000140: 59de 4b3d 83cf cebd d0e4 07be 3996 bcbd
00000150: 8ed7 453d ef8d 723d 8807 d13d f619 fd3d
00000160: cb20 a93d 734f 1a3a b02e 7ebd 9c60 1c3e
00000170: 5b9d 293d 79e8 8b3c 28fc eabc 34d1 093e
00000180: 28d9 d2bd fede c2bd eb53 a9bd 7069 47be
00000190: a6ca fbbb b71e 083d 4618 47be 54c9 c1bd
000001a0: 05af 84bd 618b 823d 0692 2d3e 973e b73d
000001b0: d205 61be 9614 f6bd 9de2 fc3d 5071 6d3d
000001c0: abd0 e43b 3a4c 68bd 77fb 20be 3eb3 ddbd
000001d0: b1ef 7a3d 88b6 0d3e bb69 95ba be94 413d
000001e0: a9ca 99bd d5a4 8fbd a6d5 863d e8b6 16be
000001f0: 4ac8 c3bd 297c 623d b431 5d3e 18cc c83d
00000200: 9d1c 06bd e278 5c3c db1a 0cbe 53bb e83d
00000210: f08f 00be 75b7 b1bd f7a0 5e3d f0c2 2ebe
00000220: 98e0 a53c 1e12 023e e1a6 20bd 52ac cc3d
00000230: 6f5d 1dbe f623 10be 1c8b 4d3d 580b ca3c
00000240: 81a5 353e 91d6 043e 5d43 74bd 9bae a13c
00000250: 2d91 ee3d 78fb 9dbd 564c f0bc 8585 36be
00000260: d18a 7d3d beaa 623d b15f be3d 2c9e 65be
00000270: 0dd7 193b cbc2 b9bd 6a4a 323d e9f1 50bd
00000280: 8526 b03d 4cc3 e1bd 3cea acbd dba9 ec3c
00000290: 186e db3b 4bdc b83d c478 bdba a4cb 7f3c
000002a0: 45ef 96bd 4f5c 8a3c 0b22 a23b 3da4 fe3d
000002b0: c1f9 c2bc 83d6 f53d 3a34 a43d 16b9 8fbd
000002c0: dafa 32be 5fdc 22be 5f50 823e 75ae 9dbd
000002d0: 9bca e23c 5736 efbd 3bc2 293d bc40 9fbd
000002e0: eba3 513d b1a7 b5bd a7c3 843d 31ba 84bc
000002f0: aef7 193e ca51 63bd 039a 7e3d 6314 c7bc
00000300: 5a83 483e 9191 ecbd 7dcf 853c 0620 283e
00000310: bdf8 2fbe a300 9e3c 0c2c 473d 4f84 31be
00000320: 679e c7bd d9a0 e53d 6230 013c 4936 3fbe
00000330: e865 733e 3cf2 f2bd 198f c7bd 9ca4 80bd
00000340: 32ed 87bd c985 8f3c b892 b3bd b8c1 afbd
00000350: ac15 f63a 00de 8b3d beee 403d caeb d13d
00000360: 41bd f43c 9712 67bc 8704 4f3e 1f9a bebd
00000370: 40cd b9bd f1ae 3ebe e1fd 4ebc 64bc 003e
00000380: 3cea c33d b0b2 b23d 2e62 4bbd e949 543d
00000390: 526c 953c 5639 7abd 45e7 993d 5090 cabd
000003a0: 145d c1bd 3250 8a3d da62 673d 9e9f 283e
000003b0: 2101 16bb 8452 7fbd c5b5 df3d 231b 213e
000003c0: 183b 80bd 1a72 44bd 4ac9 8ebd 9ed8 af3d
000003d0: 3255 b7bd 60e5 d73d 887e f73d 0da9 a9bb
000003e0: 4d00 1f3e 59a9 e7bd 251a 263e ce42 2abe
000003f0: a624 f8bd bce2 afbc dcc4 2ebe 0814 babd

gru.bias_ih_l0 f4 [225]
-0.12002259 0.09746475 0.014437086 0.07861623 0.061652005 0.010006904 -0.011619894 -0.025125282
0.033908613 0.10021104 0.07510198 0.1539468 0.13387045 -0.023734033 0.08355209 -0.050211634
-0.05010874 0.024858862 -0.06219105 -0.04603393 -0.015176879 -0.014921507 0.20268989 -0.0714282
0.07269817 0.010570371 0.07095833 -0.08537948 0.1385952 0.1156842 0.098310314 -0.013138498
0.01165665 0.04833284 -0.06917064 0.01103909 -0.108931884 -0.065460235 -0.07994664 -0.002449164
0.1226705 0.10616914 -0.015912732 0.03394789 -0.0005831924 -0.08963083 0.015807375 -0.058545757
0.03527274 0.0075960117 0.08021369 0.016677078 -0.06763816 -0.08033022 0.033900004 0.030940127
-0.14129879 -0.1179038 -0.094890326 -0.04544595 -0.0752395 0.04605401 0.03995785 0.0030416916
-0.049891114 -0.14062634 -0.043932322 0.07022153 0.037832893 0.07958402 0.10985505 0.011767099
0.041720524 -0.10723417 -0.012421434 0.19834642 -0.1427258 0.090380326 0.12750274 -0.0034955924
-0.0973407 0.20666938 0.45859492 0.17461601 0.18475452 0.028337646 0.15523013 0.16812289
0.36468154 0.3527606 0.34336594 0.20132385 -0.10122737 0.4366527 0.098948546 0.10793191
-0.034635667 -0.11772408 -0.013136902 0.06072223 0.3136439 0.49377012 -0.015887508 -0.044928715
0.16101089 0.31027156 -0.105060555 0.27821544 -0.26445824 0.10132249 -0.15629478 0.1800681
0.6015376 -0.041088257 0.19515909 -0.16634358 0.2406077 0.18510342 -0.04067425 0.50570095
-0.06991249 0.17129648 0.40790495 0.17107144 0.53183347 0.36100498 -0.049720477 0.4614518
0.1177797 0.006370009 0.013486099 0.3323798 -0.05350131 -0.021501468 0.58804744 0.09628605
0.20255436 0.27870408 0.29638657 0.29966164 0.24603532 0.4053846 0.17903155 -0.051129177
-0.08467963 0.5510067 0.17637406 0.43244156 0.008859957 0.10181715 0.057555806 -0.008443883
0.08186817 0.044757176 -0.053231847 -0.01457631 0.11720641 0.103145756 -0.08051046 0.013756325
-0.13784888 -0.19959328 0.023335412 -0.06786963 0.004513551 0.051182006 -0.059959974 0.1903838
0.00044527347 0.043858074 -0.09152265 -0.021338152 0.10158972 0.09318475 0.049253535 0.03450474
-0.042569224 0.051902976 -0.045638036 -0.05162034 0.0966862 -0.04645155 0.00299746 -0.05901991
-0.102410495 -0.066590495 -0.10768262 0.10783433 -0.1498568 0.08210268 -0.16135329 0.043392934
-0.07597797 -0.103636906 -0.031814814 -0.058868475 -0.07037713 0.048153594 -0.019325152 0.018128237
-0.071530096 -0.058491673 0.1143616 0.067115836 0.05575331 0.019126829 0.10727721 0.091569364
0.10017904 -0.056809664 -0.0069885473 -0.032106955 0.052404054 -0.06585778 -0.01975514 0.069200434
-0.097316936 -0.1337541 0.081327714 0.070002325 -0.06707166 0.06933417 -0.017859666 -0.021941243
0.018654574
00000000: 67ce f5bd 999b c73d 8789 6c3c 8c01 a13d
00000010: d086 7c3d fff3 233c 5e61 3ebc 89d3 cdbc
00000020: c2e3 0a3d 723b cd3d 11cf 993d 3ba4 1d3e
00000030: 5615 093e e06d c2bc 5c1d ab3d b7aa 4dbd
00000040: d23e 4dbd d0a4 cb3c 0bbc 7ebd 138e 3cbd
00000050: 72a8 78bc 5679 74bc f08d 4f3e f348 92bd
00000060: c7e2 943d 592f 2d3c 9a52 913d 70db aebd
00000070: e6eb 0d3e d6eb ec3d eb56 c93d db42 57bc
00000080: 89fb 3e3c a8f8 453d 56a9 8dbd 4ddd 343c
00000090: ae17 dfbd 0410 86bd 10bb a3bd 2782 20bb
000000a0: ac3a fb3d 356f d93d 6b5b 82bc f10c 0b3d
000000b0: 61e1 18ba 5e90 b7bd 787e 813c adcd 6fbd
000000c0: 267a 103d f7e7 f83b 1347 a43d 5e9e 883c
000000d0: e085 8abd 2c84 a4bd bbda 0a3d 2676 fd3c
000000e0: a1b0 10be 8c77 f1bd dc55 c2bd 8825 3abd
000000f0: 2b17 9abd 21a3 3c3d d8aa 233d 1e57 473b
00000100: a05a 4cbd 5a00 10be 61f2 33bd 4ed0 8f3d
00000110: aaf6 1a3d f2fc a23d affb e03d caca 403c
00000120: 24e3 2a3d 979d dbbd 4583 4bbc 531b 4b3e
00000130: b626 12be 5219 b93d 1490 023e 4f16 65bb
00000140: 905a c7bd 23a1 533e f4cc ea3e 8ace 323e
00000150: 4a30 3d3e 5a24 e83c a6f4 1e3e 6828 2c3e
00000160: 8ab7 ba3e 0a9d b43e a9cd af3e d727 4e3e
00000170: 4c50 cfbd f190 df3e 89a5 ca3d 680b dd3d
00000180: 21de 0dbd 5319 f1bd 293c 57bc dfb7 783d
00000190: ef95 a03e 70cf fc3e 8526 82bc 2c07 38bd
000001a0: 0ae0 243e eadb 9e3e fd29 d7bd 4172 8e3e
000001b0: 1267 87be 2a82 cf3d bd0b 20be c663 383e
000001c0: 5efe 193f 294c 28bd c9d7 473e f955 2abe
000001d0: dd61 763e c08b 3d3e 0b9a 26bd 9e75 013f
000001e0: 482e 8fbd 5868 2f3e ebd8 d03e 5a2d 2f3e
000001f0: 3d26 083f a5d5 b83e b3a7 4bbd 6943 ec3e
00000200: 7c36 f13d 82bb d03b cdf4 5c3c af2d aa3e
00000210: 3124 5bbd d923 b0bc 478a 163f 9f31 c53d
00000220: 696a 4f3e 4db2 8e3e fbbf 973e 406d 993e
00000230: aff0 7b3e 928e cf3e 0c54 373e d46c 51bd
00000240: 846c adbd c60e 0d3f 679b 343e fb68 dd3e
00000250: 5a29 113c 8385 d03d a3bf 6b3d 3658 0abc
00000260: 80aa a73d 4d53 373d a309 5abd 7ad1 6ebc
00000270: ea09 f03d 153e d33d abe2 a4bd 3562 613c
00000280: 4228 0dbe 2e62 4cbe e829 bf3c 3cff 8abd
00000290: 69e6 933b 39a4 513d 9798 75bd f9f3 423e
000002a0: 9873 e939 86a4 333d 3a70 bbbd 59cd aebc
000002b0: 450e d03d a5d7 be3d 13be 493d d854 0d3d
000002c0: 115d 2ebd 3798 543d f3ee 3abd da6f 53bd
000002d0: 6a03 c63d fb43 3ebd 0971 443b dcbe 71bd
000002e0: 98bc d1bd 9960 88bd b588 dcbd 3fd8 dc3d
000002f0: 1074 19be 7325 a83d cc39 25be cabc 313d
00000300: 579a 9bbd 963f d4bd 4050 02bd 1220 71bd
00000310: e221 90bd b43c 453d c84f 9ebc ab81 943c
00000320: 5f7e 92bd f794 6fbd 6a36 ea3d 0774 893d
00000330: 955d 643d deaf 9c3c 27b4 db3d b888 bb3d
00000340: ab2a cd3d 40b1 68bd 2f00 e5bb 9582 03bd
00000350: a2a5 563d 72e0 86bd 88d5 a1bc f5b8 8d3d
00000360: 1a4e c7bd d6f6 08be 258f a63d 615d 8f3d
00000370: de5c 89bd 13ff 8d3d 6f4e 92bc 1fbe b3bc
00000380: 7ad1 983c

gru.bias_hh_l0 f4 [225]
-0.039208643 -0.09935861 -0.020103438 -0.03248768 0.08939697 0.0437967 -0.044451375 0.003900198
-0.07896476 0.11741131 0.093885 0.005239053 -0.025287429 -0.10604859 -0.097209126 0.0665314
-0.07575024 -0.013289402 0.017898355 -0.029312324 -0.06302638 0.19274594 0.033544134 -0.027692776
-0.03762891 -0.039716326 0.09508265 -0.14703488 0.10179204 -0.05049465 0.066484414 0.1404335
-0.0562043 -0.105581515 0.11503531 -0.08236032 -0.01207814 -0.08975236 0.0028813279 0.0733471
0.10639631 -0.0027828377 0.01481793 -0.03438179 -0.08425159 0.11360421 0.0020697897 -0.047882892
-0.009239213 -0.07950964 -0.04611135 0.04870272 0.0058675194 0.06923747 -0.12562501 0.041614655
0.03186209 -0.090201385 0.10953784 -0.014510584 0.06955937 0.05402773 0.098672256 0.022252327
0.053906843 0.035668567 0.06118068 0.06773063 -0.08897456 0.03272288 0.11870143 0.064861394
-0.05126637 0.042366467 0.04960845 0.20874967 -0.08946511 0.2092632 0.1224028 0.072319396
0.090743214 0.028657086 0.27278802 0.086450614 0.20591636 0.09935511 0.1783725 0.1651969
0.29175425 0.4642038 0.48990002 0.19327602 0.050083403 0.5319988 0.22891377 -0.018051064
-0.025866393 -0.13072807 0.08319793 0.20325103 0.24295767 0.42927855 0.113497645 0.026816968
-0.0064957687 0.32873252 -0.12210045 0.24853739 -0.115880586 0.042572193 -0.05758173 0.22419758
0.6745944 0.008616823 0.16278358 -0.050997667 0.14212492 0.05195893 0.17992014 0.42687795
0.029372673 0.1863159 0.47427002 0.2747439 0.50424117 0.27932864 -0.051964674 0.58978283
0.2038059 0.14969017 -0.14003414 0.28676394 -0.025441226 0.10062289 0.548753 0.00663932
0.13910285 0.115493804 0.4497162 0.45633012 0.25914335 0.30123374 0.15065756 0.08381525
-0.0008910958 0.544351 0.088325195 0.29684013 -0.045302343 -0.04958129 0.118042335 -0.07244685
-0.03406787 0.112667516 -0.07067119 -0.06327215 0.09214495 0.10676323 0.09160767 -0.15104273
-0.1991255 -0.16733927 0.070751 0.007838564 0.050842006 -0.078871325 0.060612675 0.15808898
0.017033948 -0.12620011 -0.0687809 -0.10753773 0.010818132 -0.09899952 0.08297212 0.046130653
-0.08745116 -0.0131278 -0.06762487 0.12858549 -0.029968677 -0.06945315 0.033699308 -0.049823355
-0.07656614 -0.015456605 -0.071240254 0.059922643 -0.12793234 -0.025469283 -0.10148129 0.026798593
-0.08019174 0.036467284 -0.09246593 0.027971739 -0.06631436 -0.064411305 0.06540653 -0.022584593
0.06856304 -0.14096636 0.09213686 -0.060887184 -0.043049466 0.0030989232 0.06306927 0.13747643
-0.06725278 -0.009712843 -0.04972713 0.07912789 0.05838536 -0.038840916 0.023068206 -0.07545398
-0.03836061 -0.015003526 -0.0010322328 0.07645437 -0.059081648 -0.024778914 0.09470818 0.023917118
-0.05507123
00000000: 3e99 20bd 877c cbbd f7af a4bc cd11 05bd
00000010: c215 b73d 2b64 333d a512 36bd 779a 7f3b
00000020: 47b8 a1bd 5775 f03d c746 c03d 5dac ab3b
00000030: 9527 cfbc 0130 d9bd 9415 c7bd 9d41 883d
00000040: f122 9bbd cbbb 59bc 929f 923c 6620 f0bc
00000050: fa13 81bd 315f 453e 9365 093d f6db e2bc
00000060: c620 1abd 96ad 22bd b1ba c23d 5090 16be
00000070: 5878 d03d 7ad3 4ebd fb28 883d cdcd 0f3e
00000080: 7b36 66bd 1f3b d8bd a297 eb3d 87ac a8bd
00000090: 64e3 45bc 16d0 b7bd a9d4 3c3b 0137 963d
000000a0: 4fe6 d93d 4560 36bb e7c6 723c ebd3 0cbd
000000b0: 198c acbd 53a9 e83d 4fa5 073b da20 44bd
000000c0: 1160 17bc f3d5 a2bd 41df 3cbd 817c 473d
000000d0: 5244 c03b 60cc 8d3d d8a3 00be 2174 2a3d
000000e0: d381 023d 81bb b8bd 6055 e03d cdbd 6dbc
000000f0: 2575 8e3d 2e4c 5d3d ae14 ca3d 834a b63c
00000100: 6ccd 5c3d 3419 123d 9898 7a3d 5bb6 8a3d
00000110: 4b38 b6bd 6d08 063d bc19 f33d 0dd6 843d
00000120: affc 51bd 7688 2d3d 3b32 4b3d 79c2 553e
00000130: 7c39 b7bd 1849 563e 52ae fa3d 311c 943d
00000140: 94d7 b93d 44c2 ea3c dfaa 8b3e 050d b13d
00000150: bddb 523e b17a cb3d 48a7 363e 6029 293e
00000160: d060 953e 1fac ed3e 2dd4 fa3e 26ea 453e
00000170: 4124 4d3d 1331 083f 5f68 6a3e d3df 93bc
00000180: c2e5 d3bc 94dd 05be ad63 aa3d 0a21 503e
00000190: e5c9 783e 66ca db3e 7471 e83d 42af db3c
000001a0: 75da d4bb a14f a83e cd0f fabd 9680 7e3e
000001b0: cd52 edbd 2e60 2e3d d2da 6bbd 0d94 653e
000001c0: 38b2 2c3f 932d 0d3c bdb0 263e eee2 50bd
000001d0: 3289 113e e3d2 543d fc3c 383e bf8f da3e
000001e0: f69e f03c 98c9 3e3e 85d3 f23e 3cab 8c3e
000001f0: f315 013f 2a04 8f3e e9d8 54bd 02fc 163f
00000200: 7eb2 503e 6148 193e 1c65 0fbe b9d2 923e
00000210: 1e6a d0bc 6013 ce3d 147b 0c3f a78e d93b
00000220: fa70 0e3e 0488 ec3d 3441 e63e 1aa4 e93e
00000230: 70ae 843e 4f3b 9a3e fa45 1a3e 54a7 ab3d
00000240: 6d98 69ba 965a 0b3f d7e3 b43d 6efb 973e
00000250: f38e 39bd c015 4bbd 2ec0 f13d 045f 94bd
00000260: c08a 0bbd 3abe e63d 0fbc 90bd d494 81bd
00000270: 7eb6 bc3d aea6 da3d cd9c bb3d f2aa 1abe
00000280: 8ee7 4bbe fc5a 2bbe e6e5 903d 526d 003c
00000290: b53f 503d 4a87 a1bd ff44 783d 14e2 213e
000002a0: c78a 8b3c 9a3a 01be 00dd 8cbd be3c dcbd
000002b0: 893e 313c 43c0 cabd 49ed a93d 7ff3 3c3d
000002c0: 9819 b3bd fc15 57bc e87e 8abd eaab 033e
000002d0: df80 f5bc 743d 8ebd 4908 0a3d 9313 4cbd
000002e0: b5ce 9cbd b33d 7dbc 69e6 91bd 7271 753d
000002f0: b200 03be f5a4 d0bc 6cd5 cfbd b988 db3c
00000300: 913b a4bd b85e 153d c75e bdbd fd24 e53c
00000310: d3cf 87bd 13ea 83bd dcf3 853d 5303 b9bc
00000320: c76a 8c3d 7c59 10be 40b2 bc3d d764 79bd
00000330: a354 30bd 4e17 4b3b 762a 813d 9fc6 0c3e
00000340: d3bb 89bd 9e22 1fbc adae 4bbd ce0d a23d
00000350: 7d25 6f3d a717 1fbd 89f9 bc3c 9e87 9abd
00000360: 0420 1dbd 59d1 75bc fc4b 87ba 1c94 9c3d
00000370: 99ff 71bd 26fd cabc 5df6 c13d d5ed c33c
00000380: 5f92 61bd

gru.weight_ih_l1 f4 [225, 75]
-0.13156658 -0.15152892 -0.041948598 0.068004735 0.07862021 0.23754124 0.014812554 -0.10167992
0.12961546 0.12666437 -0.15267912 -0.07185348 -0.09787654 -0.12689288 -0.04183509 -0.05135816
0.0849405 0.06912786 0.08740296 0.030128105 0.1087872 -0.0958314 0.071536474 -0.032362245
-0.05929949 -0.028710889 -0.068582326 0.07384169 -0.2309006 0.015715966 -0.03418678 -0.06996398
0.029084673 0.12138849 -0.21122144 -0.19967748 0.1092135 0.0049448586 -0.0127983 0.17797866
-0.10548773 -0.040616635 -0.07241663 -0.021635199 -0.14976962 -0.08052992 0.10673371 -0.04679741
0.16282411 0.01217399 0.014877324 -0.005469911 0.08578721 0.052803654 -0.061770793 0.18773438
0.026001448 0.06745191 0.11922263 0.05481557 -0.16811149 -0.045617584 0.010196306 -0.01584803
-0.13958013 0.10184602 -0.099751025 -0.06390342 -0.037805032 -0.14982815 -0.02910142 -0.030506494
0.06404445 0.06305602 -0.21220586 0.0409021 0.10339902 0.24163878 -0.039296813 0.049522016
-0.07561899 -0.041162908 -0.0849141 0.03902823 -0.08264043 -0.058569767 -0.0057799476 -0.04456978
-0.12977742 -0.036813382 0.11192844 -0.11788377 0.10773711 0.019126678 -0.009942791 0.09483368
-0.11303587 0.10044332 0.1100367 -0.08067439 0.040139932 -0.05593516 0.05816308 -0.1883692
-0.064777516 0.04421878 0.17048864 0.0013265274 -0.23878287 -0.087111846 -0.031627428 0.12402563
-0.0013783869 -0.042099107 -0.11590744 -0.17387497 -0.049667682 0.09914866 -0.0024526997 -0.097369686
-0.21069121 -0.10981911 0.13620885 0.08533285 -0.0747899 -0.07772162 0.20646372 0.0024584408
0.017763231 -0.039879937 0.12708257 -0.09647564 0.14778739 0.04093638 0.16955836 -0.044357933
-0.09272185 0.011806679 0.12600322 0.07432348 -0.038211383 0.03353077 -0.018133156 -0.10259625
0.06428936 -0.025423527 -0.09852996 -0.058844518 -0.15704325 0.04070019 -0.11398364 0.013179299
-0.115472145 -0.09406168 0.008962842 0.082715444 -0.047390796 -0.032621913 -0.088102736 -0.046390075
-0.26995364 -0.034381952 0.11524072 -0.14128853 0.03849398 -0.060105607 0.0991468 -0.1300766
0.1551865 -0.053076167 -0.0040384363 -0.099745035 0.04349406 0.03455988 -0.057284243 -0.093023956
0.11051066 0.09695216 0.11895885 -0.12688227 -0.13817069 -0.0367406 0.034586735 -0.044770956
0.0060568517 -0.2120302 -0.023484435 -0.06839537 0.08433481 0.043068893 0.066589504 0.13775615
0.031276952 -0.0851652 -0.17035313 0.14067912 -0.10634115 0.0851433 0.1316896 -0.08720622
-0.11286234 0.09788938 -0.117735185 -0.056873683 0.18694173 -0.04182918 0.12952432 -0.023482133
-0.0013451872 -0.055989135 0.063671924 -0.07439361 0.025257004 -0.057450507 -0.0534544 0.06760912
0.13850255 -0.030592283 0.030692182 -0.04183898 -0.124322064 -0.082824856 -0.062490888 -0.021910567
-0.026004013 -0.052479092 0.020838588 -0.12895527 -0.14834459 -0.055939667 -0.02533323 -0.017122282
0.044602282 0.11393216 0.15704443 -0.097863935 -0.03192172 0.037063934 -0.105753146 0.09414727
0.05721388 0.09429988 -0.006705471 0.11959595 -0.06441806 0.0064469744 -0.060037185 0.028653307
0.20819192 0.003967921 -0.074103616 0.051773783 0.06878705 0.14697206 -0.025488177 -0.10498834
00000000: 64b9 06be 662a 1bbe 4bd2 2bbd 1146 8b3d
00000010: a203 a13d 033e 733e 5bb0 723c 903d d0bd
00000020: eab9 043e 4eb4 013e ea57 1cbe eb27 93bd
00000030: 7f73 c8bd 35f0 01be 455b 2bbd ef5c 52bd
00000040: 49f5 ad3d e892 8d3d 5300 b33d 37cf f63c
00000050: d3cb de3d 4143 c4bd b781 923d 468e 04bd
00000060: 06e4 72bd 1933 ebbc e474 8cbd 503a 973d
00000070: 3571 6cbe c5be 803c 7007 0cbd 4649 8fbd
00000080: fb42 ee3c 879a f83d 6f4a 58be 4178 4cbe
00000090: 54ab df3d 7b08 a23b f6af 51bc 0a40 363e
000000a0: f309 d8bd a15d 26bd 2c4f 94bd 4d3c b1bc
000000b0: 355d 19be dfec a4bd 3497 da3d a4ae 3fbd
000000c0: 5dbb 263e 6a75 473c 05c0 733c f03c b3bb
000000d0: 34b1 af3d a548 583d 5f03 7dbd 713d 403e
000000e0: fd00 d53c 3a24 8a3d ff2a f43d 4b86 603d
000000f0: 6b25 2cbe 81d9 3abd 680e 273c bad3 81bc
00000100: 18ee 0ebe a594 d03d 444a ccbd ccdf 82bd
00000110: 73d9 1abd 8d6c 19be 1a66 eebc c1e8 f9bc
00000120: bd29 833d 8423 813d 7e4c 59be f688 273d
00000130: dec2 d33d 2870 773e b2f5 20bd 99d7 4a3d
00000140: 21de 9abd 709a 28bd 72e7 adbd 11dc 1f3d
00000150: 633f a9bd dae6 6fbd b765 bdbb cd8e 36bd
00000160: 5fe4 04be a1c9 16bd bd3a e53d 0c6d f1bd
00000170: 46a5 dc3d 8daf 9c3c 17e7 22bc 2938 c23d
00000180: 5a7f e7bd 3ab5 cd3d ec5a e13d 9d38 a5bd
00000190: c569 243d 441c 65bd 693c 6e3d dbe3 40be
000001a0: 13aa 84bd c01e 353d 9394 2e3e e0de ad3a
000001b0: 7f83 74be b267 b2bd c38b 01bd 2601 fe3d
000001c0: fdaa b4ba 1d70 2cbd e160 edbd 480c 32be
000001d0: 5770 4bbd 740e cb3d 79bd 20bb c269 c7bd
000001e0: 70bf 57be d7e8 e0bd 557a 0b3e fdc2 ae3d
000001f0: 722b 99bd 832c 9fbd 3a6b 533e cb1d 213b
00000200: 3284 913c 2559 23bd ef21 023e 0595 c5bd
00000210: 9455 173e e8ac 273d b5a0 2d3e aab0 35bd
00000220: f4e4 bdbd cd70 413c fd06 013e e936 983d
00000230: 8a83 1cbd 9057 093d fc8b 94bc fc1d d2bd
00000240: 24aa 833d 0045 d0bc 13ca c9bd f306 71bd
00000250: f2cf 20be 3eb5 263d 4170 e9bd fded 573c
00000260: a97c ecbd 69a3 c0bd e2d8 123c b766 a93d
00000270: da1c 42bd 8e9e 05bd 356f b4bd 8503 3ebd
00000280: 5d37 8abe 17d4 0cbd 5403 ec3d f1ad 10be
00000290: ddab 1d3d 4c31 76bd 7a0d cb3d cd32 05be
000002a0: 36e9 1e3e 6566 59bd dc54 84bb 2047 ccbd
000002b0: d426 323d a98e 0d3d e2a2 6abd 5883 bebd
000002c0: 6a53 e23d db8e c63d b3a0 f33d 6ded 01be
000002d0: 9e7c 0dbe 507d 16bd d2aa 0d3d c061 37bd
000002e0: 8e78 c63b 721e 59be 6e62 c0bc df12 8cbd
000002f0: bbb7 ac3d 0269 303d 1460 883d f30f 0d3e
00000300: 431c 003d 186b aebd 0d71 2ebe 300e 103e
00000310: 64c9 d9bd 9c5f ae3d a3d9 063e 2d99 b2bd
00000320: 5f24 e7bd 3a7a c83d 251f f1bd 61f4 68bd
00000330: a76d 3f3e 1355 2bbd 06a2 043e 9a5d c0bc
00000340: fe50 b0ba dd54 65bd 6d66 823d ad5b 98bd
00000350: c7e7 ce3c 3951 6bbd 00f3 5abd a676 8a3d
00000360: 9dd3 0d3e ab9c fabc 2c6e fb3c 5a5f 2bbd
00000370: 919c febd 14a0 a9bd 72f6 7fbd ca7d b3bc
00000380: 5e06 d5bc 51f4 56bd b0b5 aa3c da0c 04be
00000390: a5e7 17be fe20 65bd a287 cfbc 0744 8cbc
000003a0: e2b0 363d 4455 e93d 41d0 203e e36c c8bd
000003b0: 59c0 02bd 5ad0 173d 1b95 d8bd 49d0 c03d
000003c0: 1a59 6a3d 4c20 c13d 91b9 dbbb b9ee f43d
000003d0: 9eed 83bd 2441 d33b 8de9 75bd 57ba ea3c
000003e0: 4330 553e 5505 823b a3c3 97bd bf10 543d
000003f0: 3ae0 8c3d d87f 163e 95cc d0bc 2004 d7bd

gru.weight_hh_l1 f4 [225, 75]
-0.063643694 -0.048862725 0.11159737 -0.028146967 -0.01448574 0.088858664 -0.11342683 0.12904581
0.054329533 -0.13187787 -0.01703097 0.10763608 -0.07694884 -0.07472712 -0.03342637 -0.0034250752
0.039362367 0.07274887 -0.11597816 0.094022706 -0.12539932 0.034616806 -0.12636799 0.06282354
0.100489184 -0.029620565 0.05468137 -0.06288528 0.08519443 -0.15982908 0.07479511 0.011825641
-0.0013414847 0.06300479 0.065732874 0.017947435 -0.09350238 -0.03158337 0.08172984 -0.07742587
-0.09882105 0.22639333 0.06828824 -0.030529577 -0.026129436 -0.0025350065 -0.06386192 -0.19634749
0.09483569 0.18748887 -0.09485774 -0.34781435 -0.02621492 -0.0891866 0.060913872 -0.03148592
0.08604881 -0.02261901 0.0099375965 0.04901818 0.078125305 0.088347 0.17723763 0.17491864
0.076339655 0.20413035 0.056537494 0.005719363 0.12031135 -0.03887725 0.019710936 0.04488062
-0.052105714 0.09729655 -0.04509546 0.11287031 0.11371021 0.12083409 0.072788544 -0.07846214
0.11134783 0.022016587 0.012711793 0.01159439 0.06581224 -0.120827824 -0.103982985 0.06563565
0.04340818 -0.017270358 -0.024168367 -0.06568612 0.073573016 0.055907305 0.06255497 0.031347804
0.11474922 -0.09684299 0.015834196 -0.05872877 -0.034287427 0.017425952 0.014022013 0.06896715
0.04027157 0.074892186 0.009173256 0.08851402 -0.027870413 -0.0013403443 -0.032729704 -0.09796883
0.06354155 0.060297184 0.09275384 0.007776016 0.10266318 0.01034343 0.002705119 0.085658826
0.09584137 0.033088412 0.06559807 0.08279178 -0.12749225 0.096693456 0.04621025 0.04540561
-0.032713033 0.05719301 0.06597743 0.19928198 -0.09195771 -0.08564439 0.00012221707 0.029648285
0.034396697 -0.038417988 0.041061617 0.081982195 -0.023870697 -0.06570632 0.00017251099 0.04017465
0.026103921 -0.04254 0.033459343 -0.002781276 -0.01200098 -0.10704891 -0.16147858 0.1354408
0.003940227 -0.12462329 0.06490387 0.035914607 -0.031021802 -0.056130484 -0.004967499 -0.14160137
0.03629774 0.08920037 0.03444988 0.009563107 -0.0955312 -0.0772017 -0.031412557 0.022167146
-0.12941785 -0.007877875 0.11409965 -0.014207787 -0.032218132 0.12918337 0.03763955 -0.055659376
-0.018306542 -0.05131556 0.04690402 0.056659054 0.019565877 -0.071006045 0.068300515 0.15893234
0.08620028 -0.03963405 0.09985728 0.014279178 0.03652695 -0.060399536 0.0011629094 -0.012012456
-0.012876793 -0.039093483 0.0019031306 0.029209597 0.048669856 0.05769219 0.0064602424 0.06273176
-0.003743934 -0.07889572 0.016639354 -0.029035343 -0.14321117 -0.04749811 -0.07380177 -0.13407764
-0.07932805 0.00824369 0.07240952 0.1449362 -0.003861068 -0.01542992 -0.057251777 -0.045038406
-0.029185135 0.034507006 0.11861506 -0.04077463 0.11585149 0.049504865 0.005610947 -0.04485367
0.020378072 -0.05915131 0.048856653 0.015356312 0.13285717 0.07741522 0.06128046 -0.049021784
-0.022597624 0.047661886 -0.03988518 -0.10895893 -0.09395702 -0.107322834 0.021299807 0.013136629
-0.055237733 -0.08043482 0.08144051 -0.12195247 -0.048307654 0.09961544 -0.026036087 0.03598561
0.08531008 0.1315389 0.015685149 -0.06534294 0.026014235 -0.026866898 0.029596236 -0.0029859703
00000000: a057 82bd 4824 48bd 298d e43d 7894 e6bc
00000010: 9955 6dbc 88fb b53d 534c e8bd 9624 043e
00000020: a588 5e3d fe0a 07be 8884 8bbc 4e70 dc3d
00000030: 5a97 9dbd 880a 99bd 17ea 08bd 3a77 60bb
00000040: 6f3a 213d 5cfd 943d f585 edbd fa8e c03d
00000050: ae68 00be 5aca 0d3d 9c66 01be a1a9 803d
00000060: 46cd cd3d d4a6 f2bc 92f9 5f3d ffc9 80bd
00000070: 6b7a ae3d 3caa 23be 2e2e 993d 55c0 413c
00000080: c2d4 afba a808 813d f59e 863d 8006 933c
00000090: 2d7e bfbd 905d 01bd f961 a73d 7491 9ebd
000000a0: b162 cabd a7d3 673e b4da 8b3d 2a19 fabc
000000b0: 660d d6bc 5a22 26bb 0aca 82bd 510f 49be
000000c0: 3739 c23d 15fd 3f3e c644 c2bd b914 b2be
000000d0: acc0 d6bc 77a7 b6bd d380 793d 61f7 00bd
000000e0: 5c3a b03d 814b b9bc 4dd1 223c 4ac7 483d
000000f0: 2900 a03d 46ef b43d c87d 353e df1d 333e
00000100: f757 9c3d 8c07 513e dc93 673d 7f69 bb3b
00000110: cc65 f63d c03d 1fbd d478 a13c bed4 373d
00000120: cd6c 55bd 6a43 c73d 04b6 38bd 8d28 e73d
00000130: e6e0 e83d dd77 f73d 2912 953d c2b0 a0bd
00000140: 550a e43d 215c b43c 2045 503c 65f6 3d3c
00000150: 91c8 863d 9474 f7bd 08f5 d4bd fc6b 863d
00000160: c7cc 313d 917a 8dbc bdfc c5bc 7286 86bd
00000170: 73ad 963d 0fff 643d d21c 803d 8e66 003d
00000180: a401 eb3d 9e55 c6bd b7b6 813c 948d 70bd
00000190: f970 0cbd dfc0 8e3c 96bc 653c a63e 8d3d
000001a0: cdf3 243d 1361 993d 6d4b 163c d746 b53d
000001b0: 7e50 e4bc 7eae afba 950f 06bd e2a3 c8bd
000001c0: 1222 823d 2efa 763d baf5 bd3d f3cd fe3b
000001d0: 1341 d23d 7d77 293c 5e48 313b e56d af3d
000001e0: 7b48 c43d b787 073d 4858 863d bd8e a93d
000001f0: 548d 02be 3807 c63d f646 3d3d 3cfb 393d
00000200: 1afe 05bd 3843 6a3d 2d1f 873d 9310 4c3e
00000210: 5354 bcbd 5366 afbd 6527 0039 f6e0 f23c
00000220: 8de3 0c3d 2e5c 1dbd 3a30 283d 48e6 a73d
00000230: 7b8c c3bc 0991 86bd 11e4 3439 2c8e 243d
00000240: e4d7 d53c 6c3e 2ebd aa0c 093d 1146 36bb
00000250: c29f 44bc 753c dbbd a45a 25be feb0 0a3e
00000260: 051d 813b 7f3a ffbd 52ec 843d 321b 133d
00000270: 6f21 febc 14e9 65bd 67c6 a2bb f3ff 10be
00000280: f0ac 143d afae b63d 511b 0d3d 94ae 1c3c
00000290: dda5 c3bd ed1b 9ebd 74aa 00bd e097 b53c
000002a0: 1d86 04be 3412 01bc 14ad e93d c7c7 68bc
000002b0: 29f7 03bd a548 043e ee2b 1a3d 16fb 63bd
000002c0: 9af7 95bc 4430 52bd 6e1e 403d 5313 683d
000002d0: 9e48 a03c 9e6b 91bd 24e1 8b3d 29bf 223e
000002e0: c689 b03d 5057 22bd f981 cc3d 37f3 693c
000002f0: 489d 153d 8165 77bd c46c 983a e4cf 44bc
00000300: 2ff9 52bc 7d20 20bd 7772 f93a f748 ef3c
00000310: 0b5a 473d a54e 6c3d 71b0 d33b 8279 803d
00000320: ca5c 75bb 1494 a1bd 414f 883c 87db edbc
00000330: f3a5 12be 618d 42bd 6225 97bd a64b 09be
00000340: bf76 a2bd 8b10 073c 714b 943d 286a 143e
00000350: f909 7dbb c6cd 7cbc d780 6abd 317a 38bd
00000360: aa15 efbc 3857 0d3d 74ec f23d 4c03 27bd
00000370: 8c43 ed3d 9dc5 4a3d 09dc b73b 7bb8 37bd
00000380: eaef a63c a548 72bd ea1d 483d 0a99 7b3c
00000390: b60b 083e df8b 9e3d 3801 7b3d 11cb 48bd
000003a0: a71e b9bc 1c39 433d a45e 23bd dc25 dfbd
000003b0: 8a6c c0bd 13cc dbbd ef7c ae3c 043b 573c
000003c0: f640 62bd 03bb a4bd 48ca a63d 37c2 f9bd
000003d0: 3fde 45bd 2e03 cc3d a249 d5bc a665 133d
000003e0: 0db7 ae3d 22b2 063e 247e 803c 85d2 85bd
000003f0: ce1b d53c f817 dcbc ce73 f23c 45b0 43bb

gru.bias_ih_l1 f4 [225]
-0.102416456 -0.04019313 -0.17129351 -0.036461543 -0.07728978 0.008631101 -0.09714505 0.06876479
0.096046455 -0.0071067982 0.0385291 0.026885372 0.13373071 -0.08365476 0.006079579 -0.039612174
-0.04257669 0.03232203 0.13814843 -0.03636419 0.22322573 -0.12579665 0.097567745 0.11791903
-0.127582 0.038714364 -0.03558169 -0.17216425 -0.031572238 -0.063102834 -0.13047239 -0.05721718
0.079490945 -0.043858483 -0.097496964 0.052332506 0.12938122 -0.041381925 0.07540209 0.026184026
0.05088244 -0.048285864 -0.08408098 0.034945656 0.043184247 0.0689002 0.01759857 0.012567319
0.025500495 0.06850996 -0.0033336768 -0.16851011 -0.12234025 -0.112039536 -0.004061907 -0.0070716413
-0.11709788 -0.008387266 0.044894796 0.13013981 0.14395364 -0.1182401 0.08604114 -0.08846817
-0.0069751223 -0.04067428 0.107567534 -0.10726738 0.05089949 0.12125594 0.030212922 -0.1686978
-0.09168859 0.022184048 -0.12373161 -0.02114669 0.1168206 0.30426928 0.28038082 0.14631684
0.08498007 0.063902 0.027454622 0.23528048 0.26351056 -0.07134753 0.26263165 0.33460736
-0.05738331 0.40241584 0.18381561 0.2998579 0.309848 0.1383707 0.38748908 0.31193417
0.17286779 0.31686473 0.21633664 0.096057646 0.29177034 0.29020643 -0.025574826 0.22678548
0.12251382 0.21949802 0.27457744 0.40548575 0.095110305 0.12996429 0.2781077 0.3625276
0.30797803 0.35252613 0.2774267 0.09434308 0.32809737 0.23694192 0.27644795 0.28541905
-0.14980818 0.08648645 0.13132937 0.014142097 0.1655283 0.39251196 0.18862174 0.17391706
0.2835992 0.20052391 0.2749063 0.1997091 0.26550776 0.3121837 -0.04757355 0.3883088
0.19342205 0.38154528 0.30521348 0.19525382 -0.17739077 -0.14116178 0.16597906 0.3056182
0.24378635 0.3769044 0.08322432 0.3076257 0.106252626 0.12236722 0.071146905 0.07208126
-0.019581476 0.11530274 0.07261575 -0.06335092 0.0056761205 0.12904249 -0.04187329 -0.10287322
0.1231226 0.105741374 0.063797265 0.043561783 -0.099751465 0.036225915 0.008207637 0.08018179
0.20611395 -0.0040133055 -0.12334884 -0.04322162 -0.012062905 0.07639085 0.0110318335 0.04742928
0.025942527 0.05874648 -0.10521739 -0.03563674 -0.049958706 -0.09670017 0.049054164 0.008162013
-0.05334651 -0.05584014 -0.028443003 -0.07889833 0.09157067 -0.048840623 0.14870091 -0.0060971724
-0.06468196 0.0688609 -0.06555458 -0.041746367 -0.017371781 -0.09151731 -0.16346364 -0.029106323
-0.06937055 0.07267754 0.044716258 0.037126724 0.01806331 0.07107723 -0.019500539 0.043867003
0.1247384 -0.21057789 0.12937295 -0.0136039425 -0.02686448 0.028262023 -0.048219036 0.09027205
-0.29035905 0.054735795 0.027848938 0.030776428 0.107899606 -0.003992369 0.047893636 -0.01015632
-0.015987664
00000000: b8bf d1bd 8da1 24bd 9167 2fbe b358 15bd
00000010: 1b4a 9ebd 7669 0d3c fcf3 c6bd 8ed4 8c3d
00000020: 01b4 c43d 25e0 e8bb b1d0 1d3d b63e dc3c
00000030: b4f0 083e 3053 abbd 3437 c73b 6040 22bd
00000040: e564 2ebd 1b64 043d c876 0d3e 9ef2 14bd
00000050: 4995 643e d6d0 00be 99d1 c73d 887f f13d
00000060: dba4 02be f492 1e3d 1bbe 11bd d34b 30be
00000070: e451 01bd 0f3c 81bd 8e9a 05be 905c 6abd
00000080: 26cc a23d f4a4 33bd 7dac c7bd 9c5a 563d
00000090: 837c 043e 1880 29bd 696c 9a3d e27f d63c
000000a0: 1b6a 503d 66c7 45bd a632 acbd 2d23 0f3d
000000b0: f7e1 303d 8c1b 8d3d e02a 903c 28e7 4d3c
000000c0: 6ae6 d03c f34e 8c3d d179 5abb ea8d 2cbe
000000d0: 868d fabd fc74 e5bd bf19 85bb 3ab9 e7bb
000000e0: 03d1 efbd be6a 09bc 9be3 373d 5f43 053e
000000f0: 9568 133e de27 f2bd 5636 b03d cd2e b5bd
00000100: 918f e4bb 139a 26bd 5e4c dc3d 00af dbbd
00000110: fc7b 503d 0955 f83d 1781 f73c 1ebf 2cbe
00000120: 3ac7 bbbd 52bb b53c 0067 fdbd d33b adbc
00000130: a43f ef3d 2fc9 9b3e 138e 8f3e 15d4 153e
00000140: 080a ae3d 0ddf 823d 84e8 e03c 5eed 703e
00000150: dbea 863e a71e 92bd a877 863e a851 ab3e
00000160: c30a 6bbd 7309 ce3e 293a 3c3e fa86 993e
00000170: 66a4 9e3e 0cb1 0d3e f864 c63e d6b5 9f3e
00000180: 4104 313e 183c a23e 5a87 5d3e dfb9 c43d
00000190: ec62 953e f095 943e 4c82 d1bc 743a 683e
000001a0: 87e8 fa3d 17c4 603e 6a95 8c3e d49b cf3e
000001b0: 31c9 c23d 5c15 053e 2264 8e3e 389d b93e
000001c0: 4caf 9d3e 4e7e b43e df0a 8e3e f236 c13d
000001d0: 61fc a73e e7a0 723e 968a 8d3e 7222 923e
000001e0: 5167 19be cf1f b13d 357b 063e 41b4 673c
000001f0: 4080 293e 54f7 c83e 0f26 413e 5017 323e
00000200: ea33 913e 2456 4d3e 85c0 8c3e 8b80 4c3e
00000210: a2f0 873e 8bd6 9f3e 7cdc 42bd 69d0 c63e
00000220: 6e10 463e e759 c33e f144 9c3e 9ef0 473e
00000230: eda5 35be b78c 10be 6af6 293e fd79 9c3e
00000240: 21a3 793e 9df9 c03e 8371 aa3d 1e81 9d3e
00000250: fa9a d93d aa9b fa3d 78b5 913d 579f 933d
00000260: 5569 a0bc d823 ec3d 91b7 943d 21be 81bd
00000270: c0fe b93b b723 043e 5483 2bbd 32af d2bd
00000280: b427 fc3d ef8e d83d 24a8 823d d76d 323d
00000290: 7f4a ccbd a061 143d 5379 063c 5a36 a43d
000002a0: 890f 533e 0c82 83bb 519e fcbd 2709 31bd
000002b0: 7ea3 45bc ce72 9c3d ddbe 343c 3445 423d
000002c0: 6c85 d43c 26a0 703d 377c d7bd d5f7 11bd
000002d0: 80a1 4cbd bd0a c6bd 05ed 483d f7b9 053c
000002e0: df81 5abd a1b8 64bd 4d01 e9bc 7395 a1bd
000002f0: 6789 bb3d 1b0d 48bd 0d45 183e caca c7bb
00000300: fa77 84bd f206 8d3d 7b41 86bd 3dfe 2abd
00000310: 444f 8ebc 6d6d bbbd 0363 27be 6270 eebc
00000320: 2612 8ebd f6d7 943d 6528 373d 3112 183d
00000330: 82f9 933c f090 913d 98bf 9fbc e3ad 333d
00000340: d976 ff3d bba1 57be 587a 043e 12e3 5ebc
00000350: e612 dcbc c285 e73c 5381 45bd 8de0 b83d
00000360: f1a9 94be a432 603d 7523 e43c d91e fc3c
00000370: 78fa dc3d 6bd2 82bb 1e2c 443d b266 26bc
00000380: 90f8 82bc

gru.bias_hh_l1 f4 [225]
-0.10111004 0.031284444 -0.1403089 -0.10146127 0.018015679 -0.022840088 -0.0738134 -0.048731953
-0.020106971 0.08400978 0.007508594 0.097543664 0.14077494 -0.08761587 -0.07108497 0.096870095
0.090586014 -0.09110672 0.06789044 -0.066178136 0.059313547 -0.109446496 0.11381614 0.05841797
-0.07541439 -0.12093055 -0.037036378 -0.18023601 0.045188896 -0.14037904 -0.052679576 -0.061174456
0.049338803 -0.040141083 -0.048199784 0.041665502 -0.036786843 0.0831001 -0.048565485 0.10493175
0.0834094 -0.10214599 -0.10328859 -0.12201512 -0.018325621 0.110253654 0.0474074 -0.100093886
0.09923547 -0.09000415 -0.07121402 -0.029364413 -0.15333699 -0.09649674 -0.03945611 0.10025993
-0.024147624 0.04432356 -0.022164889 0.03305328 0.03913293 0.054337192 0.06675775 -0.03845146
0.039347176 0.10529397 0.0660367 -0.08166164 -0.07045511 -0.08873837 0.015939992 0.053440753
-0.013278315 0.0582237 -0.07332646 0.08495407 0.24698102 0.33665407 0.18918358 0.28404382
0.12542775 0.0256082 0.06993863 0.3966246 0.29849094 -0.18826216 0.33793902 0.28769276
0.01397548 0.37257206 0.19769771 0.35407236 0.25277218 0.091639325 0.3213052 0.32162458
0.27175584 0.26827833 0.2173864 0.10316598 0.19182205 0.37977916 0.15108855 0.39043805
-0.006339909 0.21705142 0.40420732 0.42169565 0.17502007 0.24252857 0.20550516 0.32159466
0.33969975 0.24410574 0.35114512 -0.0024944947 0.28514388 0.31657106 0.2613515 0.34173524
-0.12230432 0.12093455 0.32694662 0.044586908 0.14322656 0.2609836 0.11784228 0.26272532
0.23477978 0.2426796 0.19190018 0.07031403 0.36424774 0.369886 -0.1306356 0.26278326
0.22384146 0.20840803 0.12724032 0.19183353 -0.142678 -0.0011256861 0.027873302 0.43197635
0.35377482 0.23405999 0.13412341 0.10218903 0.21967593 0.25178215 0.0935311 0.00051433605
-0.004005456 0.10844028 -0.147737 -0.10177678 0.059989367 0.09037014 -0.083500534 -0.07583915
-0.0022825056 0.010166445 0.12662274 0.072140716 0.03281415 0.06357513 -0.068982355 -0.09220152
0.10016508 0.006563028 0.008877951 0.07866573 0.03340923 -0.11156539 -0.0021216976 0.02062667
-0.086923175 0.01299558 -0.11470821 -0.0017715786 -0.080140226 -0.077383846 -0.062828325 0.10802704
-0.06485036 0.081549264 -0.03869837 0.08228897 -0.054165933 0.071358144 0.06604221 0.039311774
0.040670913 -0.053774353 -0.016931657 -0.117447235 -0.07959464 0.038111772 -0.13331118 0.109009326
0.11803651 0.007853692 0.018765304 -0.09514124 -0.064964205 -0.095767505 -0.11569508 -0.08992852
0.053187486 -0.1783398 0.068980694 -0.006423617 -0.03436008 -0.04001479 0.042348664 -0.087204956
-0.14023867 0.13699709 -0.026339158 0.06694212 -0.06789919 -0.027567683 0.028657828 0.000879523
0.065722704
00000000: c812 cfbd 1e24 003d 23ad 0fbe edca cfbd
00000010: 9e95 933c 231b bbbc 7b2b 97bd 289b 47bd
00000020: 60b7 a4bc 520d ac3d a70a f63b f9c4 c73d
00000030: 4e27 103e f36f b3bd ff94 91bd d463 c63d
00000040: 2985 b93d 2996 babd 250a 8b3d 6788 87bd
00000050: c3f2 723d 7c25 e0bd 7018 e93d ae47 6f3d
00000060: dc72 9abd 70aa f7bd 75b3 17bd ca8f 38be
00000070: fe17 393d 86bf 0fbe 8ac6 57bd 1192 7abd
00000080: 7c17 4a3d fa6a 24bd 236d 45bd 72a9 2a3d
00000090: cdad 16bd 6330 aa3d 9aec 46bd 75e6 d63d
000000a0: 8cd2 aa3d eb31 d1bd f888 d3bd 10e3 f9bd
000000b0: 9d1f 96bc abcc e13d 432e 423d 06fe ccbd
000000c0: f73b cb3d 1954 b8bd a8d8 91bd a38d f0bc
000000d0: 5f04 1dbe 15a0 c5bd bb9c 21bd 1455 cd3d
000000e0: 3dd1 c5bc 9f8c 353d 2493 b5bc e062 073d
000000f0: da49 203d ad90 5e3d 4ab8 883d 477f 1dbd
00000100: 812a 213d 5da4 d73d 403e 873d 383e a7bd
00000110: c54a 90bd 76bc b5bd 9694 823c b1e4 5a3d
00000120: 4a8d 59bc f97b 6e3d 2f2c 96bd 66fc ad3d
00000130: 98e8 7c3e ec5d ac3e 57b9 413e 316e 913e
00000140: 2270 003e 4ac8 d13c fc3b 8f3d 6112 cb3e
00000150: ced3 983e ccc7 40be 5806 ad3e 774c 933e
00000160: 69f9 643c c4c1 be3e 4571 4a3e f948 b53e
00000170: 5b6b 813e 66ad bb3d 1d82 a43e faab a43e
00000180: 9523 8b3e c75b 893e 8a9a 5e3e af48 d33d
00000190: 006d 443e 6a72 c23e f5b6 1a3e 7fe7 c73e
000001a0: 03bf cfbb ba42 5e3e 43f4 ce3e 7ee8 d73e
000001b0: 7638 333e 6959 783e f26f 523e 0ea8 a43e
000001c0: 20ed ad3e dbf6 793e 4bc9 b33e ad7a 23bb
000001d0: 61fe 913e 9a15 a23e ddcf 853e ecf7 ae3e
000001e0: b07a fabd 89ac f73d 8c65 a73e c3a0 363d
000001f0: fca9 123e a49f 853e 4b57 f13d ef83 863e
00000200: 1c6a 703e 0081 783e 7b81 443e cd00 903d
00000210: ae7e ba3e b361 bd3e 57c5 05be 878b 863e
00000220: b236 653e ea68 553e 494b 023e 0270 443e
00000230: 2e1a 12be c28b 93ba 8d56 e43c 012c dd3e
00000240: f921 b53e 6cad 6f3e a657 093e 7b48 d13d
00000250: baf2 603e 97e9 803e 3c8d bf3d 82d4 063a
00000260: 3340 83bb f015 de3d 5e48 17be 5870 d0bd
00000270: 69b7 753d fb13 b93d 5402 abbd 8e51 9bbd
00000280: 1796 15bb 2991 263c 64a9 013e 83be 933d
00000290: 2168 063d ae33 823d 9f46 8dbd 27d4 bcbd
000002a0: 5923 cd3d ab0e d73b d374 113c 801b a13d
000002b0: 1ed8 083d 657c e4bd 2e0c 0bbb 43f9 a83c
000002c0: c704 b2bd 6aeb 543c 23ec eabd 5034 e8ba
000002d0: 8f20 a4bd 6c7b 9ebd 23ac 80bd 483d dd3d
000002e0: 44d0 84bd 4d03 a73d 2f82 1ebd 1f87 a83d
000002f0: 19dd 5dbd 3824 923d 2341 873d 6205 213d
00000300: 8b96 263d 7f42 5cbd 42b4 8abc 2d88 f0bd
00000310: 8402 a3bd 171b 1c3d ba82 08be 4840 df3d
00000320: 20bd f13d c6ac 003c b2b9 993c 69d9 c2bd
00000330: f40b 85bd c121 c4bd 8bf1 ecbd 722c b8bd
00000340: 1fdb 593d b59e 36be c045 8d3d 347d d2bb
00000350: 28bd 0cbd 8ce6 23bd cb75 2d3d 8398 b2bd
00000360: ba9a 0fbe f748 0c3e 38c5 d7bc f318 893d
00000370: bb0e 8bbd 9fd5 e1bc d2c3 ea3c ca8f 663a
00000380: a099 863d
